{"backend": "tensorflow", "keras_version": "2.1.5", "class_name": "Model", "config": {"layers": [{"name": "input_1", "class_name": "InputLayer", "inbound_nodes": [], "config": {"sparse": false, "name": "input_1", "dtype": "float32", "batch_input_shape": [null, null, null, 3]}}, {"name": "conv2d_1", "class_name": "Conv2D", "inbound_nodes": [[["input_1", 0, 0, {}]]], "config": {"data_format": "channels_last", "kernel_regularizer": null, "filters": 32, "bias_regularizer": null, "kernel_initializer": {"class_name": "VarianceScaling", "config": {"seed": null, "scale": 1.0, "distribution": "uniform", "mode": "fan_avg"}}, "use_bias": false, "bias_initializer": {"class_name": "Zeros", "config": {}}, "dilation_rate": [1, 1], "kernel_constraint": null, "bias_constraint": null, "trainable": true, "name": "conv2d_1", "kernel_size": [3, 3], "strides": [2, 2], "padding": "valid", "activity_regularizer": null, "activation": "linear"}}, {"name": "batch_normalization_1", "class_name": "BatchNormalization", "inbound_nodes": [[["conv2d_1", 0, 0, {}]]], "config": {"scale": false, "axis": 3, "momentum": 0.99, "beta_regularizer": null, "beta_constraint": null, "moving_variance_initializer": {"class_name": "Ones", "config": {}}, "trainable": true, "epsilon": 0.001, "name": "batch_normalization_1", "gamma_regularizer": null, "beta_initializer": {"class_name": "Zeros", "config": {}}, "center": true, "gamma_initializer": {"class_name": "Ones", "config": {}}, "gamma_constraint": null, "moving_mean_initializer": {"class_name": "Zeros", "config": {}}}}, {"name": "activation_1", "class_name": "Activation", "inbound_nodes": [[["batch_normalization_1", 0, 0, {}]]], "config": {"trainable": true, "name": "activation_1", "activation": "relu"}}, {"name": "conv2d_2", "class_name": "Conv2D", "inbound_nodes": [[["activation_1", 0, 0, {}]]], "config": {"data_format": "channels_last", "kernel_regularizer": null, "filters": 32, "bias_regularizer": null, "kernel_initializer": {"class_name": "VarianceScaling", "config": {"seed": null, "scale": 1.0, "distribution": "uniform", "mode": "fan_avg"}}, "use_bias": false, "bias_initializer": {"class_name": "Zeros", "config": {}}, "dilation_rate": [1, 1], "kernel_constraint": null, "bias_constraint": null, "trainable": true, "name": "conv2d_2", "kernel_size": [3, 3], "strides": [1, 1], "padding": "valid", "activity_regularizer": null, "activation": "linear"}}, {"name": "batch_normalization_2", "class_name": "BatchNormalization", "inbound_nodes": [[["conv2d_2", 0, 0, {}]]], "config": {"scale": false, "axis": 3, "momentum": 0.99, "beta_regularizer": null, "beta_constraint": null, "moving_variance_initializer": {"class_name": "Ones", "config": {}}, "trainable": true, "epsilon": 0.001, "name": "batch_normalization_2", "gamma_regularizer": null, "beta_initializer": {"class_name": "Zeros", "config": {}}, "center": true, "gamma_initializer": {"class_name": "Ones", "config": {}}, "gamma_constraint": null, "moving_mean_initializer": {"class_name": "Zeros", "config": {}}}}, {"name": "activation_2", "class_name": "Activation", "inbound_nodes": [[["batch_normalization_2", 0, 0, {}]]], "config": {"trainable": true, "name": "activation_2", "activation": "relu"}}, {"name": "conv2d_3", "class_name": "Conv2D", "inbound_nodes": [[["activation_2", 0, 0, {}]]], "config": {"data_format": "channels_last", "kernel_regularizer": null, "filters": 64, "bias_regularizer": null, "kernel_initializer": {"class_name": "VarianceScaling", "config": {"seed": null, "scale": 1.0, "distribution": "uniform", "mode": "fan_avg"}}, "use_bias": false, "bias_initializer": {"class_name": "Zeros", "config": {}}, "dilation_rate": [1, 1], "kernel_constraint": null, "bias_constraint": null, "trainable": true, "name": "conv2d_3", "kernel_size": [3, 3], "strides": [1, 1], "padding": "same", "activity_regularizer": null, "activation": "linear"}}, {"name": "batch_normalization_3", "class_name": "BatchNormalization", "inbound_nodes": [[["conv2d_3", 0, 0, {}]]], "config": {"scale": false, "axis": 3, "momentum": 0.99, "beta_regularizer": null, "beta_constraint": null, "moving_variance_initializer": {"class_name": "Ones", "config": {}}, "trainable": true, "epsilon": 0.001, "name": "batch_normalization_3", "gamma_regularizer": null, "beta_initializer": {"class_name": "Zeros", "config": {}}, "center": true, "gamma_initializer": {"class_name": "Ones", "config": {}}, "gamma_constraint": null, "moving_mean_initializer": {"class_name": "Zeros", "config": {}}}}, {"name": "activation_3", "class_name": "Activation", "inbound_nodes": [[["batch_normalization_3", 0, 0, {}]]], "config": {"trainable": true, "name": "activation_3", "activation": "relu"}}, {"name": "max_pooling2d_1", "class_name": "MaxPooling2D", "inbound_nodes": [[["activation_3", 0, 0, {}]]], "config": {"trainable": true, "data_format": "channels_last", "name": "max_pooling2d_1", "strides": [2, 2], "padding": "valid", "pool_size": [3, 3]}}, {"name": "conv2d_4", "class_name": "Conv2D", "inbound_nodes": [[["max_pooling2d_1", 0, 0, {}]]], "config": {"data_format": "channels_last", "kernel_regularizer": null, "filters": 80, "bias_regularizer": null, "kernel_initializer": {"class_name": "VarianceScaling", "config": {"seed": null, "scale": 1.0, "distribution": "uniform", "mode": "fan_avg"}}, "use_bias": false, "bias_initializer": {"class_name": "Zeros", "config": {}}, "dilation_rate": [1, 1], "kernel_constraint": null, "bias_constraint": null, "trainable": true, "name": "conv2d_4", "kernel_size": [1, 1], "strides": [1, 1], "padding": "valid", "activity_regularizer": null, "activation": "linear"}}, {"name": "batch_normalization_4", "class_name": "BatchNormalization", "inbound_nodes": [[["conv2d_4", 0, 0, {}]]], "config": {"scale": false, "axis": 3, "momentum": 0.99, "beta_regularizer": null, "beta_constraint": null, "moving_variance_initializer": {"class_name": "Ones", "config": {}}, "trainable": true, "epsilon": 0.001, "name": "batch_normalization_4", "gamma_regularizer": null, "beta_initializer": {"class_name": "Zeros", "config": {}}, "center": true, "gamma_initializer": {"class_name": "Ones", "config": {}}, "gamma_constraint": null, "moving_mean_initializer": {"class_name": "Zeros", "config": {}}}}, {"name": "activation_4", "class_name": "Activation", "inbound_nodes": [[["batch_normalization_4", 0, 0, {}]]], "config": {"trainable": true, "name": "activation_4", "activation": "relu"}}, {"name": "conv2d_5", "class_name": "Conv2D", "inbound_nodes": [[["activation_4", 0, 0, {}]]], "config": {"data_format": "channels_last", "kernel_regularizer": null, "filters": 192, "bias_regularizer": null, "kernel_initializer": {"class_name": "VarianceScaling", "config": {"seed": null, "scale": 1.0, "distribution": "uniform", "mode": "fan_avg"}}, "use_bias": false, "bias_initializer": {"class_name": "Zeros", "config": {}}, "dilation_rate": [1, 1], "kernel_constraint": null, "bias_constraint": null, "trainable": true, "name": "conv2d_5", "kernel_size": [3, 3], "strides": [1, 1], "padding": "valid", "activity_regularizer": null, "activation": "linear"}}, {"name": "batch_normalization_5", "class_name": "BatchNormalization", "inbound_nodes": [[["conv2d_5", 0, 0, {}]]], "config": {"scale": false, "axis": 3, "momentum": 0.99, "beta_regularizer": null, "beta_constraint": null, "moving_variance_initializer": {"class_name": "Ones", "config": {}}, "trainable": true, "epsilon": 0.001, "name": "batch_normalization_5", "gamma_regularizer": null, "beta_initializer": {"class_name": "Zeros", "config": {}}, "center": true, "gamma_initializer": {"class_name": "Ones", "config": {}}, "gamma_constraint": null, "moving_mean_initializer": {"class_name": "Zeros", "config": {}}}}, {"name": "activation_5", "class_name": "Activation", "inbound_nodes": [[["batch_normalization_5", 0, 0, {}]]], "config": {"trainable": true, "name": "activation_5", "activation": "relu"}}, {"name": "max_pooling2d_2", "class_name": "MaxPooling2D", "inbound_nodes": [[["activation_5", 0, 0, {}]]], "config": {"trainable": true, "data_format": "channels_last", "name": "max_pooling2d_2", "strides": [2, 2], "padding": "valid", "pool_size": [3, 3]}}, {"name": "conv2d_9", "class_name": "Conv2D", "inbound_nodes": [[["max_pooling2d_2", 0, 0, {}]]], "config": {"data_format": "channels_last", "kernel_regularizer": null, "filters": 64, "bias_regularizer": null, "kernel_initializer": {"class_name": "VarianceScaling", "config": {"seed": null, "scale": 1.0, "distribution": "uniform", "mode": "fan_avg"}}, "use_bias": false, "bias_initializer": {"class_name": "Zeros", "config": {}}, "dilation_rate": [1, 1], "kernel_constraint": null, "bias_constraint": null, "trainable": true, "name": "conv2d_9", "kernel_size": [1, 1], "strides": [1, 1], "padding": "same", "activity_regularizer": null, "activation": "linear"}}, {"name": "batch_normalization_9", "class_name": "BatchNormalization", "inbound_nodes": [[["conv2d_9", 0, 0, {}]]], "config": {"scale": false, "axis": 3, "momentum": 0.99, "beta_regularizer": null, "beta_constraint": null, "moving_variance_initializer": {"class_name": "Ones", "config": {}}, "trainable": true, "epsilon": 0.001, "name": "batch_normalization_9", "gamma_regularizer": null, "beta_initializer": {"class_name": "Zeros", "config": {}}, "center": true, "gamma_initializer": {"class_name": "Ones", "config": {}}, "gamma_constraint": null, "moving_mean_initializer": {"class_name": "Zeros", "config": {}}}}, {"name": "activation_9", "class_name": "Activation", "inbound_nodes": [[["batch_normalization_9", 0, 0, {}]]], "config": {"trainable": true, "name": "activation_9", "activation": "relu"}}, {"name": "conv2d_7", "class_name": "Conv2D", "inbound_nodes": [[["max_pooling2d_2", 0, 0, {}]]], "config": {"data_format": "channels_last", "kernel_regularizer": null, "filters": 48, "bias_regularizer": null, "kernel_initializer": {"class_name": "VarianceScaling", "config": {"seed": null, "scale": 1.0, "distribution": "uniform", "mode": "fan_avg"}}, "use_bias": false, "bias_initializer": {"class_name": "Zeros", "config": {}}, "dilation_rate": [1, 1], "kernel_constraint": null, "bias_constraint": null, "trainable": true, "name": "conv2d_7", "kernel_size": [1, 1], "strides": [1, 1], "padding": "same", "activity_regularizer": null, "activation": "linear"}}, {"name": "conv2d_10", "class_name": "Conv2D", "inbound_nodes": [[["activation_9", 0, 0, {}]]], "config": {"data_format": "channels_last", "kernel_regularizer": null, "filters": 96, "bias_regularizer": null, "kernel_initializer": {"class_name": "VarianceScaling", "config": {"seed": null, "scale": 1.0, "distribution": "uniform", "mode": "fan_avg"}}, "use_bias": false, "bias_initializer": {"class_name": "Zeros", "config": {}}, "dilation_rate": [1, 1], "kernel_constraint": null, "bias_constraint": null, "trainable": true, "name": "conv2d_10", "kernel_size": [3, 3], "strides": [1, 1], "padding": "same", "activity_regularizer": null, "activation": "linear"}}, {"name": "batch_normalization_7", "class_name": "BatchNormalization", "inbound_nodes": [[["conv2d_7", 0, 0, {}]]], "config": {"scale": false, "axis": 3, "momentum": 0.99, "beta_regularizer": null, "beta_constraint": null, "moving_variance_initializer": {"class_name": "Ones", "config": {}}, "trainable": true, "epsilon": 0.001, "name": "batch_normalization_7", "gamma_regularizer": null, "beta_initializer": {"class_name": "Zeros", "config": {}}, "center": true, "gamma_initializer": {"class_name": "Ones", "config": {}}, "gamma_constraint": null, "moving_mean_initializer": {"class_name": "Zeros", "config": {}}}}, {"name": "batch_normalization_10", "class_name": "BatchNormalization", "inbound_nodes": [[["conv2d_10", 0, 0, {}]]], "config": {"scale": false, "axis": 3, "momentum": 0.99, "beta_regularizer": null, "beta_constraint": null, "moving_variance_initializer": {"class_name": "Ones", "config": {}}, "trainable": true, "epsilon": 0.001, "name": "batch_normalization_10", "gamma_regularizer": null, "beta_initializer": {"class_name": "Zeros", "config": {}}, "center": true, "gamma_initializer": {"class_name": "Ones", "config": {}}, "gamma_constraint": null, "moving_mean_initializer": {"class_name": "Zeros", "config": {}}}}, {"name": "activation_7", "class_name": "Activation", "inbound_nodes": [[["batch_normalization_7", 0, 0, {}]]], "config": {"trainable": true, "name": "activation_7", "activation": "relu"}}, {"name": "activation_10", "class_name": "Activation", "inbound_nodes": [[["batch_normalization_10", 0, 0, {}]]], "config": {"trainable": true, "name": "activation_10", "activation": "relu"}}, {"name": "average_pooling2d_1", "class_name": "AveragePooling2D", "inbound_nodes": [[["max_pooling2d_2", 0, 0, {}]]], "config": {"trainable": true, "data_format": "channels_last", "name": "average_pooling2d_1", "strides": [1, 1], "padding": "same", "pool_size": [3, 3]}}, {"name": "conv2d_6", "class_name": "Conv2D", "inbound_nodes": [[["max_pooling2d_2", 0, 0, {}]]], "config": {"data_format": "channels_last", "kernel_regularizer": null, "filters": 64, "bias_regularizer": null, "kernel_initializer": {"class_name": "VarianceScaling", "config": {"seed": null, "scale": 1.0, "distribution": "uniform", "mode": "fan_avg"}}, "use_bias": false, "bias_initializer": {"class_name": "Zeros", "config": {}}, "dilation_rate": [1, 1], "kernel_constraint": null, "bias_constraint": null, "trainable": true, "name": "conv2d_6", "kernel_size": [1, 1], "strides": [1, 1], "padding": "same", "activity_regularizer": null, "activation": "linear"}}, {"name": "conv2d_8", "class_name": "Conv2D", "inbound_nodes": [[["activation_7", 0, 0, {}]]], "config": {"data_format": "channels_last", "kernel_regularizer": null, "filters": 64, "bias_regularizer": null, "kernel_initializer": {"class_name": "VarianceScaling", "config": {"seed": null, "scale": 1.0, "distribution": "uniform", "mode": "fan_avg"}}, "use_bias": false, "bias_initializer": {"class_name": "Zeros", "config": {}}, "dilation_rate": [1, 1], "kernel_constraint": null, "bias_constraint": null, "trainable": true, "name": "conv2d_8", "kernel_size": [5, 5], "strides": [1, 1], "padding": "same", "activity_regularizer": null, "activation": "linear"}}, {"name": "conv2d_11", "class_name": "Conv2D", "inbound_nodes": [[["activation_10", 0, 0, {}]]], "config": {"data_format": "channels_last", "kernel_regularizer": null, "filters": 96, "bias_regularizer": null, "kernel_initializer": {"class_name": "VarianceScaling", "config": {"seed": null, "scale": 1.0, "distribution": "uniform", "mode": "fan_avg"}}, "use_bias": false, "bias_initializer": {"class_name": "Zeros", "config": {}}, "dilation_rate": [1, 1], "kernel_constraint": null, "bias_constraint": null, "trainable": true, "name": "conv2d_11", "kernel_size": [3, 3], "strides": [1, 1], "padding": "same", "activity_regularizer": null, "activation": "linear"}}, {"name": "conv2d_12", "class_name": "Conv2D", "inbound_nodes": [[["average_pooling2d_1", 0, 0, {}]]], "config": {"data_format": "channels_last", "kernel_regularizer": null, "filters": 32, "bias_regularizer": null, "kernel_initializer": {"class_name": "VarianceScaling", "config": {"seed": null, "scale": 1.0, "distribution": "uniform", "mode": "fan_avg"}}, "use_bias": false, "bias_initializer": {"class_name": "Zeros", "config": {}}, "dilation_rate": [1, 1], "kernel_constraint": null, "bias_constraint": null, "trainable": true, "name": "conv2d_12", "kernel_size": [1, 1], "strides": [1, 1], "padding": "same", "activity_regularizer": null, "activation": "linear"}}, {"name": "batch_normalization_6", "class_name": "BatchNormalization", "inbound_nodes": [[["conv2d_6", 0, 0, {}]]], "config": {"scale": false, "axis": 3, "momentum": 0.99, "beta_regularizer": null, "beta_constraint": null, "moving_variance_initializer": {"class_name": "Ones", "config": {}}, "trainable": true, "epsilon": 0.001, "name": "batch_normalization_6", "gamma_regularizer": null, "beta_initializer": {"class_name": "Zeros", "config": {}}, "center": true, "gamma_initializer": {"class_name": "Ones", "config": {}}, "gamma_constraint": null, "moving_mean_initializer": {"class_name": "Zeros", "config": {}}}}, {"name": "batch_normalization_8", "class_name": "BatchNormalization", "inbound_nodes": [[["conv2d_8", 0, 0, {}]]], "config": {"scale": false, "axis": 3, "momentum": 0.99, "beta_regularizer": null, "beta_constraint": null, "moving_variance_initializer": {"class_name": "Ones", "config": {}}, "trainable": true, "epsilon": 0.001, "name": "batch_normalization_8", "gamma_regularizer": null, "beta_initializer": {"class_name": "Zeros", "config": {}}, "center": true, "gamma_initializer": {"class_name": "Ones", "config": {}}, "gamma_constraint": null, "moving_mean_initializer": {"class_name": "Zeros", "config": {}}}}, {"name": "batch_normalization_11", "class_name": "BatchNormalization", "inbound_nodes": [[["conv2d_11", 0, 0, {}]]], "config": {"scale": false, "axis": 3, "momentum": 0.99, "beta_regularizer": null, "beta_constraint": null, "moving_variance_initializer": {"class_name": "Ones", "config": {}}, "trainable": true, "epsilon": 0.001, "name": "batch_normalization_11", "gamma_regularizer": null, "beta_initializer": {"class_name": "Zeros", "config": {}}, "center": true, "gamma_initializer": {"class_name": "Ones", "config": {}}, "gamma_constraint": null, "moving_mean_initializer": {"class_name": "Zeros", "config": {}}}}, {"name": "batch_normalization_12", "class_name": "BatchNormalization", "inbound_nodes": [[["conv2d_12", 0, 0, {}]]], "config": {"scale": false, "axis": 3, "momentum": 0.99, "beta_regularizer": null, "beta_constraint": null, "moving_variance_initializer": {"class_name": "Ones", "config": {}}, "trainable": true, "epsilon": 0.001, "name": "batch_normalization_12", "gamma_regularizer": null, "beta_initializer": {"class_name": "Zeros", "config": {}}, "center": true, "gamma_initializer": {"class_name": "Ones", "config": {}}, "gamma_constraint": null, "moving_mean_initializer": {"class_name": "Zeros", "config": {}}}}, {"name": "activation_6", "class_name": "Activation", "inbound_nodes": [[["batch_normalization_6", 0, 0, {}]]], "config": {"trainable": true, "name": "activation_6", "activation": "relu"}}, {"name": "activation_8", "class_name": "Activation", "inbound_nodes": [[["batch_normalization_8", 0, 0, {}]]], "config": {"trainable": true, "name": "activation_8", "activation": "relu"}}, {"name": "activation_11", "class_name": "Activation", "inbound_nodes": [[["batch_normalization_11", 0, 0, {}]]], "config": {"trainable": true, "name": "activation_11", "activation": "relu"}}, {"name": "activation_12", "class_name": "Activation", "inbound_nodes": [[["batch_normalization_12", 0, 0, {}]]], "config": {"trainable": true, "name": "activation_12", "activation": "relu"}}, {"name": "mixed0", "class_name": "Concatenate", "inbound_nodes": [[["activation_6", 0, 0, {}], ["activation_8", 0, 0, {}], ["activation_11", 0, 0, {}], ["activation_12", 0, 0, {}]]], "config": {"trainable": true, "name": "mixed0", "axis": 3}}, {"name": "conv2d_16", "class_name": "Conv2D", "inbound_nodes": [[["mixed0", 0, 0, {}]]], "config": {"data_format": "channels_last", "kernel_regularizer": null, "filters": 64, "bias_regularizer": null, "kernel_initializer": {"class_name": "VarianceScaling", "config": {"seed": null, "scale": 1.0, "distribution": "uniform", "mode": "fan_avg"}}, "use_bias": false, "bias_initializer": {"class_name": "Zeros", "config": {}}, "dilation_rate": [1, 1], "kernel_constraint": null, "bias_constraint": null, "trainable": true, "name": "conv2d_16", "kernel_size": [1, 1], "strides": [1, 1], "padding": "same", "activity_regularizer": null, "activation": "linear"}}, {"name": "batch_normalization_16", "class_name": "BatchNormalization", "inbound_nodes": [[["conv2d_16", 0, 0, {}]]], "config": {"scale": false, "axis": 3, "momentum": 0.99, "beta_regularizer": null, "beta_constraint": null, "moving_variance_initializer": {"class_name": "Ones", "config": {}}, "trainable": true, "epsilon": 0.001, "name": "batch_normalization_16", "gamma_regularizer": null, "beta_initializer": {"class_name": "Zeros", "config": {}}, "center": true, "gamma_initializer": {"class_name": "Ones", "config": {}}, "gamma_constraint": null, "moving_mean_initializer": {"class_name": "Zeros", "config": {}}}}, {"name": "activation_16", "class_name": "Activation", "inbound_nodes": [[["batch_normalization_16", 0, 0, {}]]], "config": {"trainable": true, "name": "activation_16", "activation": "relu"}}, {"name": "conv2d_14", "class_name": "Conv2D", "inbound_nodes": [[["mixed0", 0, 0, {}]]], "config": {"data_format": "channels_last", "kernel_regularizer": null, "filters": 48, "bias_regularizer": null, "kernel_initializer": {"class_name": "VarianceScaling", "config": {"seed": null, "scale": 1.0, "distribution": "uniform", "mode": "fan_avg"}}, "use_bias": false, "bias_initializer": {"class_name": "Zeros", "config": {}}, "dilation_rate": [1, 1], "kernel_constraint": null, "bias_constraint": null, "trainable": true, "name": "conv2d_14", "kernel_size": [1, 1], "strides": [1, 1], "padding": "same", "activity_regularizer": null, "activation": "linear"}}, {"name": "conv2d_17", "class_name": "Conv2D", "inbound_nodes": [[["activation_16", 0, 0, {}]]], "config": {"data_format": "channels_last", "kernel_regularizer": null, "filters": 96, "bias_regularizer": null, "kernel_initializer": {"class_name": "VarianceScaling", "config": {"seed": null, "scale": 1.0, "distribution": "uniform", "mode": "fan_avg"}}, "use_bias": false, "bias_initializer": {"class_name": "Zeros", "config": {}}, "dilation_rate": [1, 1], "kernel_constraint": null, "bias_constraint": null, "trainable": true, "name": "conv2d_17", "kernel_size": [3, 3], "strides": [1, 1], "padding": "same", "activity_regularizer": null, "activation": "linear"}}, {"name": "batch_normalization_14", "class_name": "BatchNormalization", "inbound_nodes": [[["conv2d_14", 0, 0, {}]]], "config": {"scale": false, "axis": 3, "momentum": 0.99, "beta_regularizer": null, "beta_constraint": null, "moving_variance_initializer": {"class_name": "Ones", "config": {}}, "trainable": true, "epsilon": 0.001, "name": "batch_normalization_14", "gamma_regularizer": null, "beta_initializer": {"class_name": "Zeros", "config": {}}, "center": true, "gamma_initializer": {"class_name": "Ones", "config": {}}, "gamma_constraint": null, "moving_mean_initializer": {"class_name": "Zeros", "config": {}}}}, {"name": "batch_normalization_17", "class_name": "BatchNormalization", "inbound_nodes": [[["conv2d_17", 0, 0, {}]]], "config": {"scale": false, "axis": 3, "momentum": 0.99, "beta_regularizer": null, "beta_constraint": null, "moving_variance_initializer": {"class_name": "Ones", "config": {}}, "trainable": true, "epsilon": 0.001, "name": "batch_normalization_17", "gamma_regularizer": null, "beta_initializer": {"class_name": "Zeros", "config": {}}, "center": true, "gamma_initializer": {"class_name": "Ones", "config": {}}, "gamma_constraint": null, "moving_mean_initializer": {"class_name": "Zeros", "config": {}}}}, {"name": "activation_14", "class_name": "Activation", "inbound_nodes": [[["batch_normalization_14", 0, 0, {}]]], "config": {"trainable": true, "name": "activation_14", "activation": "relu"}}, {"name": "activation_17", "class_name": "Activation", "inbound_nodes": [[["batch_normalization_17", 0, 0, {}]]], "config": {"trainable": true, "name": "activation_17", "activation": "relu"}}, {"name": "average_pooling2d_2", "class_name": "AveragePooling2D", "inbound_nodes": [[["mixed0", 0, 0, {}]]], "config": {"trainable": true, "data_format": "channels_last", "name": "average_pooling2d_2", "strides": [1, 1], "padding": "same", "pool_size": [3, 3]}}, {"name": "conv2d_13", "class_name": "Conv2D", "inbound_nodes": [[["mixed0", 0, 0, {}]]], "config": {"data_format": "channels_last", "kernel_regularizer": null, "filters": 64, "bias_regularizer": null, "kernel_initializer": {"class_name": "VarianceScaling", "config": {"seed": null, "scale": 1.0, "distribution": "uniform", "mode": "fan_avg"}}, "use_bias": false, "bias_initializer": {"class_name": "Zeros", "config": {}}, "dilation_rate": [1, 1], "kernel_constraint": null, "bias_constraint": null, "trainable": true, "name": "conv2d_13", "kernel_size": [1, 1], "strides": [1, 1], "padding": "same", "activity_regularizer": null, "activation": "linear"}}, {"name": "conv2d_15", "class_name": "Conv2D", "inbound_nodes": [[["activation_14", 0, 0, {}]]], "config": {"data_format": "channels_last", "kernel_regularizer": null, "filters": 64, "bias_regularizer": null, "kernel_initializer": {"class_name": "VarianceScaling", "config": {"seed": null, "scale": 1.0, "distribution": "uniform", "mode": "fan_avg"}}, "use_bias": false, "bias_initializer": {"class_name": "Zeros", "config": {}}, "dilation_rate": [1, 1], "kernel_constraint": null, "bias_constraint": null, "trainable": true, "name": "conv2d_15", "kernel_size": [5, 5], "strides": [1, 1], "padding": "same", "activity_regularizer": null, "activation": "linear"}}, {"name": "conv2d_18", "class_name": "Conv2D", "inbound_nodes": [[["activation_17", 0, 0, {}]]], "config": {"data_format": "channels_last", "kernel_regularizer": null, "filters": 96, "bias_regularizer": null, "kernel_initializer": {"class_name": "VarianceScaling", "config": {"seed": null, "scale": 1.0, "distribution": "uniform", "mode": "fan_avg"}}, "use_bias": false, "bias_initializer": {"class_name": "Zeros", "config": {}}, "dilation_rate": [1, 1], "kernel_constraint": null, "bias_constraint": null, "trainable": true, "name": "conv2d_18", "kernel_size": [3, 3], "strides": [1, 1], "padding": "same", "activity_regularizer": null, "activation": "linear"}}, {"name": "conv2d_19", "class_name": "Conv2D", "inbound_nodes": [[["average_pooling2d_2", 0, 0, {}]]], "config": {"data_format": "channels_last", "kernel_regularizer": null, "filters": 64, "bias_regularizer": null, "kernel_initializer": {"class_name": "VarianceScaling", "config": {"seed": null, "scale": 1.0, "distribution": "uniform", "mode": "fan_avg"}}, "use_bias": false, "bias_initializer": {"class_name": "Zeros", "config": {}}, "dilation_rate": [1, 1], "kernel_constraint": null, "bias_constraint": null, "trainable": true, "name": "conv2d_19", "kernel_size": [1, 1], "strides": [1, 1], "padding": "same", "activity_regularizer": null, "activation": "linear"}}, {"name": "batch_normalization_13", "class_name": "BatchNormalization", "inbound_nodes": [[["conv2d_13", 0, 0, {}]]], "config": {"scale": false, "axis": 3, "momentum": 0.99, "beta_regularizer": null, "beta_constraint": null, "moving_variance_initializer": {"class_name": "Ones", "config": {}}, "trainable": true, "epsilon": 0.001, "name": "batch_normalization_13", "gamma_regularizer": null, "beta_initializer": {"class_name": "Zeros", "config": {}}, "center": true, "gamma_initializer": {"class_name": "Ones", "config": {}}, "gamma_constraint": null, "moving_mean_initializer": {"class_name": "Zeros", "config": {}}}}, {"name": "batch_normalization_15", "class_name": "BatchNormalization", "inbound_nodes": [[["conv2d_15", 0, 0, {}]]], "config": {"scale": false, "axis": 3, "momentum": 0.99, "beta_regularizer": null, "beta_constraint": null, "moving_variance_initializer": {"class_name": "Ones", "config": {}}, "trainable": true, "epsilon": 0.001, "name": "batch_normalization_15", "gamma_regularizer": null, "beta_initializer": {"class_name": "Zeros", "config": {}}, "center": true, "gamma_initializer": {"class_name": "Ones", "config": {}}, "gamma_constraint": null, "moving_mean_initializer": {"class_name": "Zeros", "config": {}}}}, {"name": "batch_normalization_18", "class_name": "BatchNormalization", "inbound_nodes": [[["conv2d_18", 0, 0, {}]]], "config": {"scale": false, "axis": 3, "momentum": 0.99, "beta_regularizer": null, "beta_constraint": null, "moving_variance_initializer": {"class_name": "Ones", "config": {}}, "trainable": true, "epsilon": 0.001, "name": "batch_normalization_18", "gamma_regularizer": null, "beta_initializer": {"class_name": "Zeros", "config": {}}, "center": true, "gamma_initializer": {"class_name": "Ones", "config": {}}, "gamma_constraint": null, "moving_mean_initializer": {"class_name": "Zeros", "config": {}}}}, {"name": "batch_normalization_19", "class_name": "BatchNormalization", "inbound_nodes": [[["conv2d_19", 0, 0, {}]]], "config": {"scale": false, "axis": 3, "momentum": 0.99, "beta_regularizer": null, "beta_constraint": null, "moving_variance_initializer": {"class_name": "Ones", "config": {}}, "trainable": true, "epsilon": 0.001, "name": "batch_normalization_19", "gamma_regularizer": null, "beta_initializer": {"class_name": "Zeros", "config": {}}, "center": true, "gamma_initializer": {"class_name": "Ones", "config": {}}, "gamma_constraint": null, "moving_mean_initializer": {"class_name": "Zeros", "config": {}}}}, {"name": "activation_13", "class_name": "Activation", "inbound_nodes": [[["batch_normalization_13", 0, 0, {}]]], "config": {"trainable": true, "name": "activation_13", "activation": "relu"}}, {"name": "activation_15", "class_name": "Activation", "inbound_nodes": [[["batch_normalization_15", 0, 0, {}]]], "config": {"trainable": true, "name": "activation_15", "activation": "relu"}}, {"name": "activation_18", "class_name": "Activation", "inbound_nodes": [[["batch_normalization_18", 0, 0, {}]]], "config": {"trainable": true, "name": "activation_18", "activation": "relu"}}, {"name": "activation_19", "class_name": "Activation", "inbound_nodes": [[["batch_normalization_19", 0, 0, {}]]], "config": {"trainable": true, "name": "activation_19", "activation": "relu"}}, {"name": "mixed1", "class_name": "Concatenate", "inbound_nodes": [[["activation_13", 0, 0, {}], ["activation_15", 0, 0, {}], ["activation_18", 0, 0, {}], ["activation_19", 0, 0, {}]]], "config": {"trainable": true, "name": "mixed1", "axis": 3}}, {"name": "conv2d_23", "class_name": "Conv2D", "inbound_nodes": [[["mixed1", 0, 0, {}]]], "config": {"data_format": "channels_last", "kernel_regularizer": null, "filters": 64, "bias_regularizer": null, "kernel_initializer": {"class_name": "VarianceScaling", "config": {"seed": null, "scale": 1.0, "distribution": "uniform", "mode": "fan_avg"}}, "use_bias": false, "bias_initializer": {"class_name": "Zeros", "config": {}}, "dilation_rate": [1, 1], "kernel_constraint": null, "bias_constraint": null, "trainable": true, "name": "conv2d_23", "kernel_size": [1, 1], "strides": [1, 1], "padding": "same", "activity_regularizer": null, "activation": "linear"}}, {"name": "batch_normalization_23", "class_name": "BatchNormalization", "inbound_nodes": [[["conv2d_23", 0, 0, {}]]], "config": {"scale": false, "axis": 3, "momentum": 0.99, "beta_regularizer": null, "beta_constraint": null, "moving_variance_initializer": {"class_name": "Ones", "config": {}}, "trainable": true, "epsilon": 0.001, "name": "batch_normalization_23", "gamma_regularizer": null, "beta_initializer": {"class_name": "Zeros", "config": {}}, "center": true, "gamma_initializer": {"class_name": "Ones", "config": {}}, "gamma_constraint": null, "moving_mean_initializer": {"class_name": "Zeros", "config": {}}}}, {"name": "activation_23", "class_name": "Activation", "inbound_nodes": [[["batch_normalization_23", 0, 0, {}]]], "config": {"trainable": true, "name": "activation_23", "activation": "relu"}}, {"name": "conv2d_21", "class_name": "Conv2D", "inbound_nodes": [[["mixed1", 0, 0, {}]]], "config": {"data_format": "channels_last", "kernel_regularizer": null, "filters": 48, "bias_regularizer": null, "kernel_initializer": {"class_name": "VarianceScaling", "config": {"seed": null, "scale": 1.0, "distribution": "uniform", "mode": "fan_avg"}}, "use_bias": false, "bias_initializer": {"class_name": "Zeros", "config": {}}, "dilation_rate": [1, 1], "kernel_constraint": null, "bias_constraint": null, "trainable": true, "name": "conv2d_21", "kernel_size": [1, 1], "strides": [1, 1], "padding": "same", "activity_regularizer": null, "activation": "linear"}}, {"name": "conv2d_24", "class_name": "Conv2D", "inbound_nodes": [[["activation_23", 0, 0, {}]]], "config": {"data_format": "channels_last", "kernel_regularizer": null, "filters": 96, "bias_regularizer": null, "kernel_initializer": {"class_name": "VarianceScaling", "config": {"seed": null, "scale": 1.0, "distribution": "uniform", "mode": "fan_avg"}}, "use_bias": false, "bias_initializer": {"class_name": "Zeros", "config": {}}, "dilation_rate": [1, 1], "kernel_constraint": null, "bias_constraint": null, "trainable": true, "name": "conv2d_24", "kernel_size": [3, 3], "strides": [1, 1], "padding": "same", "activity_regularizer": null, "activation": "linear"}}, {"name": "batch_normalization_21", "class_name": "BatchNormalization", "inbound_nodes": [[["conv2d_21", 0, 0, {}]]], "config": {"scale": false, "axis": 3, "momentum": 0.99, "beta_regularizer": null, "beta_constraint": null, "moving_variance_initializer": {"class_name": "Ones", "config": {}}, "trainable": true, "epsilon": 0.001, "name": "batch_normalization_21", "gamma_regularizer": null, "beta_initializer": {"class_name": "Zeros", "config": {}}, "center": true, "gamma_initializer": {"class_name": "Ones", "config": {}}, "gamma_constraint": null, "moving_mean_initializer": {"class_name": "Zeros", "config": {}}}}, {"name": "batch_normalization_24", "class_name": "BatchNormalization", "inbound_nodes": [[["conv2d_24", 0, 0, {}]]], "config": {"scale": false, "axis": 3, "momentum": 0.99, "beta_regularizer": null, "beta_constraint": null, "moving_variance_initializer": {"class_name": "Ones", "config": {}}, "trainable": true, "epsilon": 0.001, "name": "batch_normalization_24", "gamma_regularizer": null, "beta_initializer": {"class_name": "Zeros", "config": {}}, "center": true, "gamma_initializer": {"class_name": "Ones", "config": {}}, "gamma_constraint": null, "moving_mean_initializer": {"class_name": "Zeros", "config": {}}}}, {"name": "activation_21", "class_name": "Activation", "inbound_nodes": [[["batch_normalization_21", 0, 0, {}]]], "config": {"trainable": true, "name": "activation_21", "activation": "relu"}}, {"name": "activation_24", "class_name": "Activation", "inbound_nodes": [[["batch_normalization_24", 0, 0, {}]]], "config": {"trainable": true, "name": "activation_24", "activation": "relu"}}, {"name": "average_pooling2d_3", "class_name": "AveragePooling2D", "inbound_nodes": [[["mixed1", 0, 0, {}]]], "config": {"trainable": true, "data_format": "channels_last", "name": "average_pooling2d_3", "strides": [1, 1], "padding": "same", "pool_size": [3, 3]}}, {"name": "conv2d_20", "class_name": "Conv2D", "inbound_nodes": [[["mixed1", 0, 0, {}]]], "config": {"data_format": "channels_last", "kernel_regularizer": null, "filters": 64, "bias_regularizer": null, "kernel_initializer": {"class_name": "VarianceScaling", "config": {"seed": null, "scale": 1.0, "distribution": "uniform", "mode": "fan_avg"}}, "use_bias": false, "bias_initializer": {"class_name": "Zeros", "config": {}}, "dilation_rate": [1, 1], "kernel_constraint": null, "bias_constraint": null, "trainable": true, "name": "conv2d_20", "kernel_size": [1, 1], "strides": [1, 1], "padding": "same", "activity_regularizer": null, "activation": "linear"}}, {"name": "conv2d_22", "class_name": "Conv2D", "inbound_nodes": [[["activation_21", 0, 0, {}]]], "config": {"data_format": "channels_last", "kernel_regularizer": null, "filters": 64, "bias_regularizer": null, "kernel_initializer": {"class_name": "VarianceScaling", "config": {"seed": null, "scale": 1.0, "distribution": "uniform", "mode": "fan_avg"}}, "use_bias": false, "bias_initializer": {"class_name": "Zeros", "config": {}}, "dilation_rate": [1, 1], "kernel_constraint": null, "bias_constraint": null, "trainable": true, "name": "conv2d_22", "kernel_size": [5, 5], "strides": [1, 1], "padding": "same", "activity_regularizer": null, "activation": "linear"}}, {"name": "conv2d_25", "class_name": "Conv2D", "inbound_nodes": [[["activation_24", 0, 0, {}]]], "config": {"data_format": "channels_last", "kernel_regularizer": null, "filters": 96, "bias_regularizer": null, "kernel_initializer": {"class_name": "VarianceScaling", "config": {"seed": null, "scale": 1.0, "distribution": "uniform", "mode": "fan_avg"}}, "use_bias": false, "bias_initializer": {"class_name": "Zeros", "config": {}}, "dilation_rate": [1, 1], "kernel_constraint": null, "bias_constraint": null, "trainable": true, "name": "conv2d_25", "kernel_size": [3, 3], "strides": [1, 1], "padding": "same", "activity_regularizer": null, "activation": "linear"}}, {"name": "conv2d_26", "class_name": "Conv2D", "inbound_nodes": [[["average_pooling2d_3", 0, 0, {}]]], "config": {"data_format": "channels_last", "kernel_regularizer": null, "filters": 64, "bias_regularizer": null, "kernel_initializer": {"class_name": "VarianceScaling", "config": {"seed": null, "scale": 1.0, "distribution": "uniform", "mode": "fan_avg"}}, "use_bias": false, "bias_initializer": {"class_name": "Zeros", "config": {}}, "dilation_rate": [1, 1], "kernel_constraint": null, "bias_constraint": null, "trainable": true, "name": "conv2d_26", "kernel_size": [1, 1], "strides": [1, 1], "padding": "same", "activity_regularizer": null, "activation": "linear"}}, {"name": "batch_normalization_20", "class_name": "BatchNormalization", "inbound_nodes": [[["conv2d_20", 0, 0, {}]]], "config": {"scale": false, "axis": 3, "momentum": 0.99, "beta_regularizer": null, "beta_constraint": null, "moving_variance_initializer": {"class_name": "Ones", "config": {}}, "trainable": true, "epsilon": 0.001, "name": "batch_normalization_20", "gamma_regularizer": null, "beta_initializer": {"class_name": "Zeros", "config": {}}, "center": true, "gamma_initializer": {"class_name": "Ones", "config": {}}, "gamma_constraint": null, "moving_mean_initializer": {"class_name": "Zeros", "config": {}}}}, {"name": "batch_normalization_22", "class_name": "BatchNormalization", "inbound_nodes": [[["conv2d_22", 0, 0, {}]]], "config": {"scale": false, "axis": 3, "momentum": 0.99, "beta_regularizer": null, "beta_constraint": null, "moving_variance_initializer": {"class_name": "Ones", "config": {}}, "trainable": true, "epsilon": 0.001, "name": "batch_normalization_22", "gamma_regularizer": null, "beta_initializer": {"class_name": "Zeros", "config": {}}, "center": true, "gamma_initializer": {"class_name": "Ones", "config": {}}, "gamma_constraint": null, "moving_mean_initializer": {"class_name": "Zeros", "config": {}}}}, {"name": "batch_normalization_25", "class_name": "BatchNormalization", "inbound_nodes": [[["conv2d_25", 0, 0, {}]]], "config": {"scale": false, "axis": 3, "momentum": 0.99, "beta_regularizer": null, "beta_constraint": null, "moving_variance_initializer": {"class_name": "Ones", "config": {}}, "trainable": true, "epsilon": 0.001, "name": "batch_normalization_25", "gamma_regularizer": null, "beta_initializer": {"class_name": "Zeros", "config": {}}, "center": true, "gamma_initializer": {"class_name": "Ones", "config": {}}, "gamma_constraint": null, "moving_mean_initializer": {"class_name": "Zeros", "config": {}}}}, {"name": "batch_normalization_26", "class_name": "BatchNormalization", "inbound_nodes": [[["conv2d_26", 0, 0, {}]]], "config": {"scale": false, "axis": 3, "momentum": 0.99, "beta_regularizer": null, "beta_constraint": null, "moving_variance_initializer": {"class_name": "Ones", "config": {}}, "trainable": true, "epsilon": 0.001, "name": "batch_normalization_26", "gamma_regularizer": null, "beta_initializer": {"class_name": "Zeros", "config": {}}, "center": true, "gamma_initializer": {"class_name": "Ones", "config": {}}, "gamma_constraint": null, "moving_mean_initializer": {"class_name": "Zeros", "config": {}}}}, {"name": "activation_20", "class_name": "Activation", "inbound_nodes": [[["batch_normalization_20", 0, 0, {}]]], "config": {"trainable": true, "name": "activation_20", "activation": "relu"}}, {"name": "activation_22", "class_name": "Activation", "inbound_nodes": [[["batch_normalization_22", 0, 0, {}]]], "config": {"trainable": true, "name": "activation_22", "activation": "relu"}}, {"name": "activation_25", "class_name": "Activation", "inbound_nodes": [[["batch_normalization_25", 0, 0, {}]]], "config": {"trainable": true, "name": "activation_25", "activation": "relu"}}, {"name": "activation_26", "class_name": "Activation", "inbound_nodes": [[["batch_normalization_26", 0, 0, {}]]], "config": {"trainable": true, "name": "activation_26", "activation": "relu"}}, {"name": "mixed2", "class_name": "Concatenate", "inbound_nodes": [[["activation_20", 0, 0, {}], ["activation_22", 0, 0, {}], ["activation_25", 0, 0, {}], ["activation_26", 0, 0, {}]]], "config": {"trainable": true, "name": "mixed2", "axis": 3}}, {"name": "conv2d_28", "class_name": "Conv2D", "inbound_nodes": [[["mixed2", 0, 0, {}]]], "config": {"data_format": "channels_last", "kernel_regularizer": null, "filters": 64, "bias_regularizer": null, "kernel_initializer": {"class_name": "VarianceScaling", "config": {"seed": null, "scale": 1.0, "distribution": "uniform", "mode": "fan_avg"}}, "use_bias": false, "bias_initializer": {"class_name": "Zeros", "config": {}}, "dilation_rate": [1, 1], "kernel_constraint": null, "bias_constraint": null, "trainable": true, "name": "conv2d_28", "kernel_size": [1, 1], "strides": [1, 1], "padding": "same", "activity_regularizer": null, "activation": "linear"}}, {"name": "batch_normalization_28", "class_name": "BatchNormalization", "inbound_nodes": [[["conv2d_28", 0, 0, {}]]], "config": {"scale": false, "axis": 3, "momentum": 0.99, "beta_regularizer": null, "beta_constraint": null, "moving_variance_initializer": {"class_name": "Ones", "config": {}}, "trainable": true, "epsilon": 0.001, "name": "batch_normalization_28", "gamma_regularizer": null, "beta_initializer": {"class_name": "Zeros", "config": {}}, "center": true, "gamma_initializer": {"class_name": "Ones", "config": {}}, "gamma_constraint": null, "moving_mean_initializer": {"class_name": "Zeros", "config": {}}}}, {"name": "activation_28", "class_name": "Activation", "inbound_nodes": [[["batch_normalization_28", 0, 0, {}]]], "config": {"trainable": true, "name": "activation_28", "activation": "relu"}}, {"name": "conv2d_29", "class_name": "Conv2D", "inbound_nodes": [[["activation_28", 0, 0, {}]]], "config": {"data_format": "channels_last", "kernel_regularizer": null, "filters": 96, "bias_regularizer": null, "kernel_initializer": {"class_name": "VarianceScaling", "config": {"seed": null, "scale": 1.0, "distribution": "uniform", "mode": "fan_avg"}}, "use_bias": false, "bias_initializer": {"class_name": "Zeros", "config": {}}, "dilation_rate": [1, 1], "kernel_constraint": null, "bias_constraint": null, "trainable": true, "name": "conv2d_29", "kernel_size": [3, 3], "strides": [1, 1], "padding": "same", "activity_regularizer": null, "activation": "linear"}}, {"name": "batch_normalization_29", "class_name": "BatchNormalization", "inbound_nodes": [[["conv2d_29", 0, 0, {}]]], "config": {"scale": false, "axis": 3, "momentum": 0.99, "beta_regularizer": null, "beta_constraint": null, "moving_variance_initializer": {"class_name": "Ones", "config": {}}, "trainable": true, "epsilon": 0.001, "name": "batch_normalization_29", "gamma_regularizer": null, "beta_initializer": {"class_name": "Zeros", "config": {}}, "center": true, "gamma_initializer": {"class_name": "Ones", "config": {}}, "gamma_constraint": null, "moving_mean_initializer": {"class_name": "Zeros", "config": {}}}}, {"name": "activation_29", "class_name": "Activation", "inbound_nodes": [[["batch_normalization_29", 0, 0, {}]]], "config": {"trainable": true, "name": "activation_29", "activation": "relu"}}, {"name": "conv2d_27", "class_name": "Conv2D", "inbound_nodes": [[["mixed2", 0, 0, {}]]], "config": {"data_format": "channels_last", "kernel_regularizer": null, "filters": 384, "bias_regularizer": null, "kernel_initializer": {"class_name": "VarianceScaling", "config": {"seed": null, "scale": 1.0, "distribution": "uniform", "mode": "fan_avg"}}, "use_bias": false, "bias_initializer": {"class_name": "Zeros", "config": {}}, "dilation_rate": [1, 1], "kernel_constraint": null, "bias_constraint": null, "trainable": true, "name": "conv2d_27", "kernel_size": [3, 3], "strides": [2, 2], "padding": "valid", "activity_regularizer": null, "activation": "linear"}}, {"name": "conv2d_30", "class_name": "Conv2D", "inbound_nodes": [[["activation_29", 0, 0, {}]]], "config": {"data_format": "channels_last", "kernel_regularizer": null, "filters": 96, "bias_regularizer": null, "kernel_initializer": {"class_name": "VarianceScaling", "config": {"seed": null, "scale": 1.0, "distribution": "uniform", "mode": "fan_avg"}}, "use_bias": false, "bias_initializer": {"class_name": "Zeros", "config": {}}, "dilation_rate": [1, 1], "kernel_constraint": null, "bias_constraint": null, "trainable": true, "name": "conv2d_30", "kernel_size": [3, 3], "strides": [2, 2], "padding": "valid", "activity_regularizer": null, "activation": "linear"}}, {"name": "batch_normalization_27", "class_name": "BatchNormalization", "inbound_nodes": [[["conv2d_27", 0, 0, {}]]], "config": {"scale": false, "axis": 3, "momentum": 0.99, "beta_regularizer": null, "beta_constraint": null, "moving_variance_initializer": {"class_name": "Ones", "config": {}}, "trainable": true, "epsilon": 0.001, "name": "batch_normalization_27", "gamma_regularizer": null, "beta_initializer": {"class_name": "Zeros", "config": {}}, "center": true, "gamma_initializer": {"class_name": "Ones", "config": {}}, "gamma_constraint": null, "moving_mean_initializer": {"class_name": "Zeros", "config": {}}}}, {"name": "batch_normalization_30", "class_name": "BatchNormalization", "inbound_nodes": [[["conv2d_30", 0, 0, {}]]], "config": {"scale": false, "axis": 3, "momentum": 0.99, "beta_regularizer": null, "beta_constraint": null, "moving_variance_initializer": {"class_name": "Ones", "config": {}}, "trainable": true, "epsilon": 0.001, "name": "batch_normalization_30", "gamma_regularizer": null, "beta_initializer": {"class_name": "Zeros", "config": {}}, "center": true, "gamma_initializer": {"class_name": "Ones", "config": {}}, "gamma_constraint": null, "moving_mean_initializer": {"class_name": "Zeros", "config": {}}}}, {"name": "activation_27", "class_name": "Activation", "inbound_nodes": [[["batch_normalization_27", 0, 0, {}]]], "config": {"trainable": true, "name": "activation_27", "activation": "relu"}}, {"name": "activation_30", "class_name": "Activation", "inbound_nodes": [[["batch_normalization_30", 0, 0, {}]]], "config": {"trainable": true, "name": "activation_30", "activation": "relu"}}, {"name": "max_pooling2d_3", "class_name": "MaxPooling2D", "inbound_nodes": [[["mixed2", 0, 0, {}]]], "config": {"trainable": true, "data_format": "channels_last", "name": "max_pooling2d_3", "strides": [2, 2], "padding": "valid", "pool_size": [3, 3]}}, {"name": "mixed3", "class_name": "Concatenate", "inbound_nodes": [[["activation_27", 0, 0, {}], ["activation_30", 0, 0, {}], ["max_pooling2d_3", 0, 0, {}]]], "config": {"trainable": true, "name": "mixed3", "axis": 3}}, {"name": "conv2d_35", "class_name": "Conv2D", "inbound_nodes": [[["mixed3", 0, 0, {}]]], "config": {"data_format": "channels_last", "kernel_regularizer": null, "filters": 128, "bias_regularizer": null, "kernel_initializer": {"class_name": "VarianceScaling", "config": {"seed": null, "scale": 1.0, "distribution": "uniform", "mode": "fan_avg"}}, "use_bias": false, "bias_initializer": {"class_name": "Zeros", "config": {}}, "dilation_rate": [1, 1], "kernel_constraint": null, "bias_constraint": null, "trainable": true, "name": "conv2d_35", "kernel_size": [1, 1], "strides": [1, 1], "padding": "same", "activity_regularizer": null, "activation": "linear"}}, {"name": "batch_normalization_35", "class_name": "BatchNormalization", "inbound_nodes": [[["conv2d_35", 0, 0, {}]]], "config": {"scale": false, "axis": 3, "momentum": 0.99, "beta_regularizer": null, "beta_constraint": null, "moving_variance_initializer": {"class_name": "Ones", "config": {}}, "trainable": true, "epsilon": 0.001, "name": "batch_normalization_35", "gamma_regularizer": null, "beta_initializer": {"class_name": "Zeros", "config": {}}, "center": true, "gamma_initializer": {"class_name": "Ones", "config": {}}, "gamma_constraint": null, "moving_mean_initializer": {"class_name": "Zeros", "config": {}}}}, {"name": "activation_35", "class_name": "Activation", "inbound_nodes": [[["batch_normalization_35", 0, 0, {}]]], "config": {"trainable": true, "name": "activation_35", "activation": "relu"}}, {"name": "conv2d_36", "class_name": "Conv2D", "inbound_nodes": [[["activation_35", 0, 0, {}]]], "config": {"data_format": "channels_last", "kernel_regularizer": null, "filters": 128, "bias_regularizer": null, "kernel_initializer": {"class_name": "VarianceScaling", "config": {"seed": null, "scale": 1.0, "distribution": "uniform", "mode": "fan_avg"}}, "use_bias": false, "bias_initializer": {"class_name": "Zeros", "config": {}}, "dilation_rate": [1, 1], "kernel_constraint": null, "bias_constraint": null, "trainable": true, "name": "conv2d_36", "kernel_size": [7, 1], "strides": [1, 1], "padding": "same", "activity_regularizer": null, "activation": "linear"}}, {"name": "batch_normalization_36", "class_name": "BatchNormalization", "inbound_nodes": [[["conv2d_36", 0, 0, {}]]], "config": {"scale": false, "axis": 3, "momentum": 0.99, "beta_regularizer": null, "beta_constraint": null, "moving_variance_initializer": {"class_name": "Ones", "config": {}}, "trainable": true, "epsilon": 0.001, "name": "batch_normalization_36", "gamma_regularizer": null, "beta_initializer": {"class_name": "Zeros", "config": {}}, "center": true, "gamma_initializer": {"class_name": "Ones", "config": {}}, "gamma_constraint": null, "moving_mean_initializer": {"class_name": "Zeros", "config": {}}}}, {"name": "activation_36", "class_name": "Activation", "inbound_nodes": [[["batch_normalization_36", 0, 0, {}]]], "config": {"trainable": true, "name": "activation_36", "activation": "relu"}}, {"name": "conv2d_32", "class_name": "Conv2D", "inbound_nodes": [[["mixed3", 0, 0, {}]]], "config": {"data_format": "channels_last", "kernel_regularizer": null, "filters": 128, "bias_regularizer": null, "kernel_initializer": {"class_name": "VarianceScaling", "config": {"seed": null, "scale": 1.0, "distribution": "uniform", "mode": "fan_avg"}}, "use_bias": false, "bias_initializer": {"class_name": "Zeros", "config": {}}, "dilation_rate": [1, 1], "kernel_constraint": null, "bias_constraint": null, "trainable": true, "name": "conv2d_32", "kernel_size": [1, 1], "strides": [1, 1], "padding": "same", "activity_regularizer": null, "activation": "linear"}}, {"name": "conv2d_37", "class_name": "Conv2D", "inbound_nodes": [[["activation_36", 0, 0, {}]]], "config": {"data_format": "channels_last", "kernel_regularizer": null, "filters": 128, "bias_regularizer": null, "kernel_initializer": {"class_name": "VarianceScaling", "config": {"seed": null, "scale": 1.0, "distribution": "uniform", "mode": "fan_avg"}}, "use_bias": false, "bias_initializer": {"class_name": "Zeros", "config": {}}, "dilation_rate": [1, 1], "kernel_constraint": null, "bias_constraint": null, "trainable": true, "name": "conv2d_37", "kernel_size": [1, 7], "strides": [1, 1], "padding": "same", "activity_regularizer": null, "activation": "linear"}}, {"name": "batch_normalization_32", "class_name": "BatchNormalization", "inbound_nodes": [[["conv2d_32", 0, 0, {}]]], "config": {"scale": false, "axis": 3, "momentum": 0.99, "beta_regularizer": null, "beta_constraint": null, "moving_variance_initializer": {"class_name": "Ones", "config": {}}, "trainable": true, "epsilon": 0.001, "name": "batch_normalization_32", "gamma_regularizer": null, "beta_initializer": {"class_name": "Zeros", "config": {}}, "center": true, "gamma_initializer": {"class_name": "Ones", "config": {}}, "gamma_constraint": null, "moving_mean_initializer": {"class_name": "Zeros", "config": {}}}}, {"name": "batch_normalization_37", "class_name": "BatchNormalization", "inbound_nodes": [[["conv2d_37", 0, 0, {}]]], "config": {"scale": false, "axis": 3, "momentum": 0.99, "beta_regularizer": null, "beta_constraint": null, "moving_variance_initializer": {"class_name": "Ones", "config": {}}, "trainable": true, "epsilon": 0.001, "name": "batch_normalization_37", "gamma_regularizer": null, "beta_initializer": {"class_name": "Zeros", "config": {}}, "center": true, "gamma_initializer": {"class_name": "Ones", "config": {}}, "gamma_constraint": null, "moving_mean_initializer": {"class_name": "Zeros", "config": {}}}}, {"name": "activation_32", "class_name": "Activation", "inbound_nodes": [[["batch_normalization_32", 0, 0, {}]]], "config": {"trainable": true, "name": "activation_32", "activation": "relu"}}, {"name": "activation_37", "class_name": "Activation", "inbound_nodes": [[["batch_normalization_37", 0, 0, {}]]], "config": {"trainable": true, "name": "activation_37", "activation": "relu"}}, {"name": "conv2d_33", "class_name": "Conv2D", "inbound_nodes": [[["activation_32", 0, 0, {}]]], "config": {"data_format": "channels_last", "kernel_regularizer": null, "filters": 128, "bias_regularizer": null, "kernel_initializer": {"class_name": "VarianceScaling", "config": {"seed": null, "scale": 1.0, "distribution": "uniform", "mode": "fan_avg"}}, "use_bias": false, "bias_initializer": {"class_name": "Zeros", "config": {}}, "dilation_rate": [1, 1], "kernel_constraint": null, "bias_constraint": null, "trainable": true, "name": "conv2d_33", "kernel_size": [1, 7], "strides": [1, 1], "padding": "same", "activity_regularizer": null, "activation": "linear"}}, {"name": "conv2d_38", "class_name": "Conv2D", "inbound_nodes": [[["activation_37", 0, 0, {}]]], "config": {"data_format": "channels_last", "kernel_regularizer": null, "filters": 128, "bias_regularizer": null, "kernel_initializer": {"class_name": "VarianceScaling", "config": {"seed": null, "scale": 1.0, "distribution": "uniform", "mode": "fan_avg"}}, "use_bias": false, "bias_initializer": {"class_name": "Zeros", "config": {}}, "dilation_rate": [1, 1], "kernel_constraint": null, "bias_constraint": null, "trainable": true, "name": "conv2d_38", "kernel_size": [7, 1], "strides": [1, 1], "padding": "same", "activity_regularizer": null, "activation": "linear"}}, {"name": "batch_normalization_33", "class_name": "BatchNormalization", "inbound_nodes": [[["conv2d_33", 0, 0, {}]]], "config": {"scale": false, "axis": 3, "momentum": 0.99, "beta_regularizer": null, "beta_constraint": null, "moving_variance_initializer": {"class_name": "Ones", "config": {}}, "trainable": true, "epsilon": 0.001, "name": "batch_normalization_33", "gamma_regularizer": null, "beta_initializer": {"class_name": "Zeros", "config": {}}, "center": true, "gamma_initializer": {"class_name": "Ones", "config": {}}, "gamma_constraint": null, "moving_mean_initializer": {"class_name": "Zeros", "config": {}}}}, {"name": "batch_normalization_38", "class_name": "BatchNormalization", "inbound_nodes": [[["conv2d_38", 0, 0, {}]]], "config": {"scale": false, "axis": 3, "momentum": 0.99, "beta_regularizer": null, "beta_constraint": null, "moving_variance_initializer": {"class_name": "Ones", "config": {}}, "trainable": true, "epsilon": 0.001, "name": "batch_normalization_38", "gamma_regularizer": null, "beta_initializer": {"class_name": "Zeros", "config": {}}, "center": true, "gamma_initializer": {"class_name": "Ones", "config": {}}, "gamma_constraint": null, "moving_mean_initializer": {"class_name": "Zeros", "config": {}}}}, {"name": "activation_33", "class_name": "Activation", "inbound_nodes": [[["batch_normalization_33", 0, 0, {}]]], "config": {"trainable": true, "name": "activation_33", "activation": "relu"}}, {"name": "activation_38", "class_name": "Activation", "inbound_nodes": [[["batch_normalization_38", 0, 0, {}]]], "config": {"trainable": true, "name": "activation_38", "activation": "relu"}}, {"name": "average_pooling2d_4", "class_name": "AveragePooling2D", "inbound_nodes": [[["mixed3", 0, 0, {}]]], "config": {"trainable": true, "data_format": "channels_last", "name": "average_pooling2d_4", "strides": [1, 1], "padding": "same", "pool_size": [3, 3]}}, {"name": "conv2d_31", "class_name": "Conv2D", "inbound_nodes": [[["mixed3", 0, 0, {}]]], "config": {"data_format": "channels_last", "kernel_regularizer": null, "filters": 192, "bias_regularizer": null, "kernel_initializer": {"class_name": "VarianceScaling", "config": {"seed": null, "scale": 1.0, "distribution": "uniform", "mode": "fan_avg"}}, "use_bias": false, "bias_initializer": {"class_name": "Zeros", "config": {}}, "dilation_rate": [1, 1], "kernel_constraint": null, "bias_constraint": null, "trainable": true, "name": "conv2d_31", "kernel_size": [1, 1], "strides": [1, 1], "padding": "same", "activity_regularizer": null, "activation": "linear"}}, {"name": "conv2d_34", "class_name": "Conv2D", "inbound_nodes": [[["activation_33", 0, 0, {}]]], "config": {"data_format": "channels_last", "kernel_regularizer": null, "filters": 192, "bias_regularizer": null, "kernel_initializer": {"class_name": "VarianceScaling", "config": {"seed": null, "scale": 1.0, "distribution": "uniform", "mode": "fan_avg"}}, "use_bias": false, "bias_initializer": {"class_name": "Zeros", "config": {}}, "dilation_rate": [1, 1], "kernel_constraint": null, "bias_constraint": null, "trainable": true, "name": "conv2d_34", "kernel_size": [7, 1], "strides": [1, 1], "padding": "same", "activity_regularizer": null, "activation": "linear"}}, {"name": "conv2d_39", "class_name": "Conv2D", "inbound_nodes": [[["activation_38", 0, 0, {}]]], "config": {"data_format": "channels_last", "kernel_regularizer": null, "filters": 192, "bias_regularizer": null, "kernel_initializer": {"class_name": "VarianceScaling", "config": {"seed": null, "scale": 1.0, "distribution": "uniform", "mode": "fan_avg"}}, "use_bias": false, "bias_initializer": {"class_name": "Zeros", "config": {}}, "dilation_rate": [1, 1], "kernel_constraint": null, "bias_constraint": null, "trainable": true, "name": "conv2d_39", "kernel_size": [1, 7], "strides": [1, 1], "padding": "same", "activity_regularizer": null, "activation": "linear"}}, {"name": "conv2d_40", "class_name": "Conv2D", "inbound_nodes": [[["average_pooling2d_4", 0, 0, {}]]], "config": {"data_format": "channels_last", "kernel_regularizer": null, "filters": 192, "bias_regularizer": null, "kernel_initializer": {"class_name": "VarianceScaling", "config": {"seed": null, "scale": 1.0, "distribution": "uniform", "mode": "fan_avg"}}, "use_bias": false, "bias_initializer": {"class_name": "Zeros", "config": {}}, "dilation_rate": [1, 1], "kernel_constraint": null, "bias_constraint": null, "trainable": true, "name": "conv2d_40", "kernel_size": [1, 1], "strides": [1, 1], "padding": "same", "activity_regularizer": null, "activation": "linear"}}, {"name": "batch_normalization_31", "class_name": "BatchNormalization", "inbound_nodes": [[["conv2d_31", 0, 0, {}]]], "config": {"scale": false, "axis": 3, "momentum": 0.99, "beta_regularizer": null, "beta_constraint": null, "moving_variance_initializer": {"class_name": "Ones", "config": {}}, "trainable": true, "epsilon": 0.001, "name": "batch_normalization_31", "gamma_regularizer": null, "beta_initializer": {"class_name": "Zeros", "config": {}}, "center": true, "gamma_initializer": {"class_name": "Ones", "config": {}}, "gamma_constraint": null, "moving_mean_initializer": {"class_name": "Zeros", "config": {}}}}, {"name": "batch_normalization_34", "class_name": "BatchNormalization", "inbound_nodes": [[["conv2d_34", 0, 0, {}]]], "config": {"scale": false, "axis": 3, "momentum": 0.99, "beta_regularizer": null, "beta_constraint": null, "moving_variance_initializer": {"class_name": "Ones", "config": {}}, "trainable": true, "epsilon": 0.001, "name": "batch_normalization_34", "gamma_regularizer": null, "beta_initializer": {"class_name": "Zeros", "config": {}}, "center": true, "gamma_initializer": {"class_name": "Ones", "config": {}}, "gamma_constraint": null, "moving_mean_initializer": {"class_name": "Zeros", "config": {}}}}, {"name": "batch_normalization_39", "class_name": "BatchNormalization", "inbound_nodes": [[["conv2d_39", 0, 0, {}]]], "config": {"scale": false, "axis": 3, "momentum": 0.99, "beta_regularizer": null, "beta_constraint": null, "moving_variance_initializer": {"class_name": "Ones", "config": {}}, "trainable": true, "epsilon": 0.001, "name": "batch_normalization_39", "gamma_regularizer": null, "beta_initializer": {"class_name": "Zeros", "config": {}}, "center": true, "gamma_initializer": {"class_name": "Ones", "config": {}}, "gamma_constraint": null, "moving_mean_initializer": {"class_name": "Zeros", "config": {}}}}, {"name": "batch_normalization_40", "class_name": "BatchNormalization", "inbound_nodes": [[["conv2d_40", 0, 0, {}]]], "config": {"scale": false, "axis": 3, "momentum": 0.99, "beta_regularizer": null, "beta_constraint": null, "moving_variance_initializer": {"class_name": "Ones", "config": {}}, "trainable": true, "epsilon": 0.001, "name": "batch_normalization_40", "gamma_regularizer": null, "beta_initializer": {"class_name": "Zeros", "config": {}}, "center": true, "gamma_initializer": {"class_name": "Ones", "config": {}}, "gamma_constraint": null, "moving_mean_initializer": {"class_name": "Zeros", "config": {}}}}, {"name": "activation_31", "class_name": "Activation", "inbound_nodes": [[["batch_normalization_31", 0, 0, {}]]], "config": {"trainable": true, "name": "activation_31", "activation": "relu"}}, {"name": "activation_34", "class_name": "Activation", "inbound_nodes": [[["batch_normalization_34", 0, 0, {}]]], "config": {"trainable": true, "name": "activation_34", "activation": "relu"}}, {"name": "activation_39", "class_name": "Activation", "inbound_nodes": [[["batch_normalization_39", 0, 0, {}]]], "config": {"trainable": true, "name": "activation_39", "activation": "relu"}}, {"name": "activation_40", "class_name": "Activation", "inbound_nodes": [[["batch_normalization_40", 0, 0, {}]]], "config": {"trainable": true, "name": "activation_40", "activation": "relu"}}, {"name": "mixed4", "class_name": "Concatenate", "inbound_nodes": [[["activation_31", 0, 0, {}], ["activation_34", 0, 0, {}], ["activation_39", 0, 0, {}], ["activation_40", 0, 0, {}]]], "config": {"trainable": true, "name": "mixed4", "axis": 3}}, {"name": "conv2d_45", "class_name": "Conv2D", "inbound_nodes": [[["mixed4", 0, 0, {}]]], "config": {"data_format": "channels_last", "kernel_regularizer": null, "filters": 160, "bias_regularizer": null, "kernel_initializer": {"class_name": "VarianceScaling", "config": {"seed": null, "scale": 1.0, "distribution": "uniform", "mode": "fan_avg"}}, "use_bias": false, "bias_initializer": {"class_name": "Zeros", "config": {}}, "dilation_rate": [1, 1], "kernel_constraint": null, "bias_constraint": null, "trainable": true, "name": "conv2d_45", "kernel_size": [1, 1], "strides": [1, 1], "padding": "same", "activity_regularizer": null, "activation": "linear"}}, {"name": "batch_normalization_45", "class_name": "BatchNormalization", "inbound_nodes": [[["conv2d_45", 0, 0, {}]]], "config": {"scale": false, "axis": 3, "momentum": 0.99, "beta_regularizer": null, "beta_constraint": null, "moving_variance_initializer": {"class_name": "Ones", "config": {}}, "trainable": true, "epsilon": 0.001, "name": "batch_normalization_45", "gamma_regularizer": null, "beta_initializer": {"class_name": "Zeros", "config": {}}, "center": true, "gamma_initializer": {"class_name": "Ones", "config": {}}, "gamma_constraint": null, "moving_mean_initializer": {"class_name": "Zeros", "config": {}}}}, {"name": "activation_45", "class_name": "Activation", "inbound_nodes": [[["batch_normalization_45", 0, 0, {}]]], "config": {"trainable": true, "name": "activation_45", "activation": "relu"}}, {"name": "conv2d_46", "class_name": "Conv2D", "inbound_nodes": [[["activation_45", 0, 0, {}]]], "config": {"data_format": "channels_last", "kernel_regularizer": null, "filters": 160, "bias_regularizer": null, "kernel_initializer": {"class_name": "VarianceScaling", "config": {"seed": null, "scale": 1.0, "distribution": "uniform", "mode": "fan_avg"}}, "use_bias": false, "bias_initializer": {"class_name": "Zeros", "config": {}}, "dilation_rate": [1, 1], "kernel_constraint": null, "bias_constraint": null, "trainable": true, "name": "conv2d_46", "kernel_size": [7, 1], "strides": [1, 1], "padding": "same", "activity_regularizer": null, "activation": "linear"}}, {"name": "batch_normalization_46", "class_name": "BatchNormalization", "inbound_nodes": [[["conv2d_46", 0, 0, {}]]], "config": {"scale": false, "axis": 3, "momentum": 0.99, "beta_regularizer": null, "beta_constraint": null, "moving_variance_initializer": {"class_name": "Ones", "config": {}}, "trainable": true, "epsilon": 0.001, "name": "batch_normalization_46", "gamma_regularizer": null, "beta_initializer": {"class_name": "Zeros", "config": {}}, "center": true, "gamma_initializer": {"class_name": "Ones", "config": {}}, "gamma_constraint": null, "moving_mean_initializer": {"class_name": "Zeros", "config": {}}}}, {"name": "activation_46", "class_name": "Activation", "inbound_nodes": [[["batch_normalization_46", 0, 0, {}]]], "config": {"trainable": true, "name": "activation_46", "activation": "relu"}}, {"name": "conv2d_42", "class_name": "Conv2D", "inbound_nodes": [[["mixed4", 0, 0, {}]]], "config": {"data_format": "channels_last", "kernel_regularizer": null, "filters": 160, "bias_regularizer": null, "kernel_initializer": {"class_name": "VarianceScaling", "config": {"seed": null, "scale": 1.0, "distribution": "uniform", "mode": "fan_avg"}}, "use_bias": false, "bias_initializer": {"class_name": "Zeros", "config": {}}, "dilation_rate": [1, 1], "kernel_constraint": null, "bias_constraint": null, "trainable": true, "name": "conv2d_42", "kernel_size": [1, 1], "strides": [1, 1], "padding": "same", "activity_regularizer": null, "activation": "linear"}}, {"name": "conv2d_47", "class_name": "Conv2D", "inbound_nodes": [[["activation_46", 0, 0, {}]]], "config": {"data_format": "channels_last", "kernel_regularizer": null, "filters": 160, "bias_regularizer": null, "kernel_initializer": {"class_name": "VarianceScaling", "config": {"seed": null, "scale": 1.0, "distribution": "uniform", "mode": "fan_avg"}}, "use_bias": false, "bias_initializer": {"class_name": "Zeros", "config": {}}, "dilation_rate": [1, 1], "kernel_constraint": null, "bias_constraint": null, "trainable": true, "name": "conv2d_47", "kernel_size": [1, 7], "strides": [1, 1], "padding": "same", "activity_regularizer": null, "activation": "linear"}}, {"name": "batch_normalization_42", "class_name": "BatchNormalization", "inbound_nodes": [[["conv2d_42", 0, 0, {}]]], "config": {"scale": false, "axis": 3, "momentum": 0.99, "beta_regularizer": null, "beta_constraint": null, "moving_variance_initializer": {"class_name": "Ones", "config": {}}, "trainable": true, "epsilon": 0.001, "name": "batch_normalization_42", "gamma_regularizer": null, "beta_initializer": {"class_name": "Zeros", "config": {}}, "center": true, "gamma_initializer": {"class_name": "Ones", "config": {}}, "gamma_constraint": null, "moving_mean_initializer": {"class_name": "Zeros", "config": {}}}}, {"name": "batch_normalization_47", "class_name": "BatchNormalization", "inbound_nodes": [[["conv2d_47", 0, 0, {}]]], "config": {"scale": false, "axis": 3, "momentum": 0.99, "beta_regularizer": null, "beta_constraint": null, "moving_variance_initializer": {"class_name": "Ones", "config": {}}, "trainable": true, "epsilon": 0.001, "name": "batch_normalization_47", "gamma_regularizer": null, "beta_initializer": {"class_name": "Zeros", "config": {}}, "center": true, "gamma_initializer": {"class_name": "Ones", "config": {}}, "gamma_constraint": null, "moving_mean_initializer": {"class_name": "Zeros", "config": {}}}}, {"name": "activation_42", "class_name": "Activation", "inbound_nodes": [[["batch_normalization_42", 0, 0, {}]]], "config": {"trainable": true, "name": "activation_42", "activation": "relu"}}, {"name": "activation_47", "class_name": "Activation", "inbound_nodes": [[["batch_normalization_47", 0, 0, {}]]], "config": {"trainable": true, "name": "activation_47", "activation": "relu"}}, {"name": "conv2d_43", "class_name": "Conv2D", "inbound_nodes": [[["activation_42", 0, 0, {}]]], "config": {"data_format": "channels_last", "kernel_regularizer": null, "filters": 160, "bias_regularizer": null, "kernel_initializer": {"class_name": "VarianceScaling", "config": {"seed": null, "scale": 1.0, "distribution": "uniform", "mode": "fan_avg"}}, "use_bias": false, "bias_initializer": {"class_name": "Zeros", "config": {}}, "dilation_rate": [1, 1], "kernel_constraint": null, "bias_constraint": null, "trainable": true, "name": "conv2d_43", "kernel_size": [1, 7], "strides": [1, 1], "padding": "same", "activity_regularizer": null, "activation": "linear"}}, {"name": "conv2d_48", "class_name": "Conv2D", "inbound_nodes": [[["activation_47", 0, 0, {}]]], "config": {"data_format": "channels_last", "kernel_regularizer": null, "filters": 160, "bias_regularizer": null, "kernel_initializer": {"class_name": "VarianceScaling", "config": {"seed": null, "scale": 1.0, "distribution": "uniform", "mode": "fan_avg"}}, "use_bias": false, "bias_initializer": {"class_name": "Zeros", "config": {}}, "dilation_rate": [1, 1], "kernel_constraint": null, "bias_constraint": null, "trainable": true, "name": "conv2d_48", "kernel_size": [7, 1], "strides": [1, 1], "padding": "same", "activity_regularizer": null, "activation": "linear"}}, {"name": "batch_normalization_43", "class_name": "BatchNormalization", "inbound_nodes": [[["conv2d_43", 0, 0, {}]]], "config": {"scale": false, "axis": 3, "momentum": 0.99, "beta_regularizer": null, "beta_constraint": null, "moving_variance_initializer": {"class_name": "Ones", "config": {}}, "trainable": true, "epsilon": 0.001, "name": "batch_normalization_43", "gamma_regularizer": null, "beta_initializer": {"class_name": "Zeros", "config": {}}, "center": true, "gamma_initializer": {"class_name": "Ones", "config": {}}, "gamma_constraint": null, "moving_mean_initializer": {"class_name": "Zeros", "config": {}}}}, {"name": "batch_normalization_48", "class_name": "BatchNormalization", "inbound_nodes": [[["conv2d_48", 0, 0, {}]]], "config": {"scale": false, "axis": 3, "momentum": 0.99, "beta_regularizer": null, "beta_constraint": null, "moving_variance_initializer": {"class_name": "Ones", "config": {}}, "trainable": true, "epsilon": 0.001, "name": "batch_normalization_48", "gamma_regularizer": null, "beta_initializer": {"class_name": "Zeros", "config": {}}, "center": true, "gamma_initializer": {"class_name": "Ones", "config": {}}, "gamma_constraint": null, "moving_mean_initializer": {"class_name": "Zeros", "config": {}}}}, {"name": "activation_43", "class_name": "Activation", "inbound_nodes": [[["batch_normalization_43", 0, 0, {}]]], "config": {"trainable": true, "name": "activation_43", "activation": "relu"}}, {"name": "activation_48", "class_name": "Activation", "inbound_nodes": [[["batch_normalization_48", 0, 0, {}]]], "config": {"trainable": true, "name": "activation_48", "activation": "relu"}}, {"name": "average_pooling2d_5", "class_name": "AveragePooling2D", "inbound_nodes": [[["mixed4", 0, 0, {}]]], "config": {"trainable": true, "data_format": "channels_last", "name": "average_pooling2d_5", "strides": [1, 1], "padding": "same", "pool_size": [3, 3]}}, {"name": "conv2d_41", "class_name": "Conv2D", "inbound_nodes": [[["mixed4", 0, 0, {}]]], "config": {"data_format": "channels_last", "kernel_regularizer": null, "filters": 192, "bias_regularizer": null, "kernel_initializer": {"class_name": "VarianceScaling", "config": {"seed": null, "scale": 1.0, "distribution": "uniform", "mode": "fan_avg"}}, "use_bias": false, "bias_initializer": {"class_name": "Zeros", "config": {}}, "dilation_rate": [1, 1], "kernel_constraint": null, "bias_constraint": null, "trainable": true, "name": "conv2d_41", "kernel_size": [1, 1], "strides": [1, 1], "padding": "same", "activity_regularizer": null, "activation": "linear"}}, {"name": "conv2d_44", "class_name": "Conv2D", "inbound_nodes": [[["activation_43", 0, 0, {}]]], "config": {"data_format": "channels_last", "kernel_regularizer": null, "filters": 192, "bias_regularizer": null, "kernel_initializer": {"class_name": "VarianceScaling", "config": {"seed": null, "scale": 1.0, "distribution": "uniform", "mode": "fan_avg"}}, "use_bias": false, "bias_initializer": {"class_name": "Zeros", "config": {}}, "dilation_rate": [1, 1], "kernel_constraint": null, "bias_constraint": null, "trainable": true, "name": "conv2d_44", "kernel_size": [7, 1], "strides": [1, 1], "padding": "same", "activity_regularizer": null, "activation": "linear"}}, {"name": "conv2d_49", "class_name": "Conv2D", "inbound_nodes": [[["activation_48", 0, 0, {}]]], "config": {"data_format": "channels_last", "kernel_regularizer": null, "filters": 192, "bias_regularizer": null, "kernel_initializer": {"class_name": "VarianceScaling", "config": {"seed": null, "scale": 1.0, "distribution": "uniform", "mode": "fan_avg"}}, "use_bias": false, "bias_initializer": {"class_name": "Zeros", "config": {}}, "dilation_rate": [1, 1], "kernel_constraint": null, "bias_constraint": null, "trainable": true, "name": "conv2d_49", "kernel_size": [1, 7], "strides": [1, 1], "padding": "same", "activity_regularizer": null, "activation": "linear"}}, {"name": "conv2d_50", "class_name": "Conv2D", "inbound_nodes": [[["average_pooling2d_5", 0, 0, {}]]], "config": {"data_format": "channels_last", "kernel_regularizer": null, "filters": 192, "bias_regularizer": null, "kernel_initializer": {"class_name": "VarianceScaling", "config": {"seed": null, "scale": 1.0, "distribution": "uniform", "mode": "fan_avg"}}, "use_bias": false, "bias_initializer": {"class_name": "Zeros", "config": {}}, "dilation_rate": [1, 1], "kernel_constraint": null, "bias_constraint": null, "trainable": true, "name": "conv2d_50", "kernel_size": [1, 1], "strides": [1, 1], "padding": "same", "activity_regularizer": null, "activation": "linear"}}, {"name": "batch_normalization_41", "class_name": "BatchNormalization", "inbound_nodes": [[["conv2d_41", 0, 0, {}]]], "config": {"scale": false, "axis": 3, "momentum": 0.99, "beta_regularizer": null, "beta_constraint": null, "moving_variance_initializer": {"class_name": "Ones", "config": {}}, "trainable": true, "epsilon": 0.001, "name": "batch_normalization_41", "gamma_regularizer": null, "beta_initializer": {"class_name": "Zeros", "config": {}}, "center": true, "gamma_initializer": {"class_name": "Ones", "config": {}}, "gamma_constraint": null, "moving_mean_initializer": {"class_name": "Zeros", "config": {}}}}, {"name": "batch_normalization_44", "class_name": "BatchNormalization", "inbound_nodes": [[["conv2d_44", 0, 0, {}]]], "config": {"scale": false, "axis": 3, "momentum": 0.99, "beta_regularizer": null, "beta_constraint": null, "moving_variance_initializer": {"class_name": "Ones", "config": {}}, "trainable": true, "epsilon": 0.001, "name": "batch_normalization_44", "gamma_regularizer": null, "beta_initializer": {"class_name": "Zeros", "config": {}}, "center": true, "gamma_initializer": {"class_name": "Ones", "config": {}}, "gamma_constraint": null, "moving_mean_initializer": {"class_name": "Zeros", "config": {}}}}, {"name": "batch_normalization_49", "class_name": "BatchNormalization", "inbound_nodes": [[["conv2d_49", 0, 0, {}]]], "config": {"scale": false, "axis": 3, "momentum": 0.99, "beta_regularizer": null, "beta_constraint": null, "moving_variance_initializer": {"class_name": "Ones", "config": {}}, "trainable": true, "epsilon": 0.001, "name": "batch_normalization_49", "gamma_regularizer": null, "beta_initializer": {"class_name": "Zeros", "config": {}}, "center": true, "gamma_initializer": {"class_name": "Ones", "config": {}}, "gamma_constraint": null, "moving_mean_initializer": {"class_name": "Zeros", "config": {}}}}, {"name": "batch_normalization_50", "class_name": "BatchNormalization", "inbound_nodes": [[["conv2d_50", 0, 0, {}]]], "config": {"scale": false, "axis": 3, "momentum": 0.99, "beta_regularizer": null, "beta_constraint": null, "moving_variance_initializer": {"class_name": "Ones", "config": {}}, "trainable": true, "epsilon": 0.001, "name": "batch_normalization_50", "gamma_regularizer": null, "beta_initializer": {"class_name": "Zeros", "config": {}}, "center": true, "gamma_initializer": {"class_name": "Ones", "config": {}}, "gamma_constraint": null, "moving_mean_initializer": {"class_name": "Zeros", "config": {}}}}, {"name": "activation_41", "class_name": "Activation", "inbound_nodes": [[["batch_normalization_41", 0, 0, {}]]], "config": {"trainable": true, "name": "activation_41", "activation": "relu"}}, {"name": "activation_44", "class_name": "Activation", "inbound_nodes": [[["batch_normalization_44", 0, 0, {}]]], "config": {"trainable": true, "name": "activation_44", "activation": "relu"}}, {"name": "activation_49", "class_name": "Activation", "inbound_nodes": [[["batch_normalization_49", 0, 0, {}]]], "config": {"trainable": true, "name": "activation_49", "activation": "relu"}}, {"name": "activation_50", "class_name": "Activation", "inbound_nodes": [[["batch_normalization_50", 0, 0, {}]]], "config": {"trainable": true, "name": "activation_50", "activation": "relu"}}, {"name": "mixed5", "class_name": "Concatenate", "inbound_nodes": [[["activation_41", 0, 0, {}], ["activation_44", 0, 0, {}], ["activation_49", 0, 0, {}], ["activation_50", 0, 0, {}]]], "config": {"trainable": true, "name": "mixed5", "axis": 3}}, {"name": "conv2d_55", "class_name": "Conv2D", "inbound_nodes": [[["mixed5", 0, 0, {}]]], "config": {"data_format": "channels_last", "kernel_regularizer": null, "filters": 160, "bias_regularizer": null, "kernel_initializer": {"class_name": "VarianceScaling", "config": {"seed": null, "scale": 1.0, "distribution": "uniform", "mode": "fan_avg"}}, "use_bias": false, "bias_initializer": {"class_name": "Zeros", "config": {}}, "dilation_rate": [1, 1], "kernel_constraint": null, "bias_constraint": null, "trainable": true, "name": "conv2d_55", "kernel_size": [1, 1], "strides": [1, 1], "padding": "same", "activity_regularizer": null, "activation": "linear"}}, {"name": "batch_normalization_55", "class_name": "BatchNormalization", "inbound_nodes": [[["conv2d_55", 0, 0, {}]]], "config": {"scale": false, "axis": 3, "momentum": 0.99, "beta_regularizer": null, "beta_constraint": null, "moving_variance_initializer": {"class_name": "Ones", "config": {}}, "trainable": true, "epsilon": 0.001, "name": "batch_normalization_55", "gamma_regularizer": null, "beta_initializer": {"class_name": "Zeros", "config": {}}, "center": true, "gamma_initializer": {"class_name": "Ones", "config": {}}, "gamma_constraint": null, "moving_mean_initializer": {"class_name": "Zeros", "config": {}}}}, {"name": "activation_55", "class_name": "Activation", "inbound_nodes": [[["batch_normalization_55", 0, 0, {}]]], "config": {"trainable": true, "name": "activation_55", "activation": "relu"}}, {"name": "conv2d_56", "class_name": "Conv2D", "inbound_nodes": [[["activation_55", 0, 0, {}]]], "config": {"data_format": "channels_last", "kernel_regularizer": null, "filters": 160, "bias_regularizer": null, "kernel_initializer": {"class_name": "VarianceScaling", "config": {"seed": null, "scale": 1.0, "distribution": "uniform", "mode": "fan_avg"}}, "use_bias": false, "bias_initializer": {"class_name": "Zeros", "config": {}}, "dilation_rate": [1, 1], "kernel_constraint": null, "bias_constraint": null, "trainable": true, "name": "conv2d_56", "kernel_size": [7, 1], "strides": [1, 1], "padding": "same", "activity_regularizer": null, "activation": "linear"}}, {"name": "batch_normalization_56", "class_name": "BatchNormalization", "inbound_nodes": [[["conv2d_56", 0, 0, {}]]], "config": {"scale": false, "axis": 3, "momentum": 0.99, "beta_regularizer": null, "beta_constraint": null, "moving_variance_initializer": {"class_name": "Ones", "config": {}}, "trainable": true, "epsilon": 0.001, "name": "batch_normalization_56", "gamma_regularizer": null, "beta_initializer": {"class_name": "Zeros", "config": {}}, "center": true, "gamma_initializer": {"class_name": "Ones", "config": {}}, "gamma_constraint": null, "moving_mean_initializer": {"class_name": "Zeros", "config": {}}}}, {"name": "activation_56", "class_name": "Activation", "inbound_nodes": [[["batch_normalization_56", 0, 0, {}]]], "config": {"trainable": true, "name": "activation_56", "activation": "relu"}}, {"name": "conv2d_52", "class_name": "Conv2D", "inbound_nodes": [[["mixed5", 0, 0, {}]]], "config": {"data_format": "channels_last", "kernel_regularizer": null, "filters": 160, "bias_regularizer": null, "kernel_initializer": {"class_name": "VarianceScaling", "config": {"seed": null, "scale": 1.0, "distribution": "uniform", "mode": "fan_avg"}}, "use_bias": false, "bias_initializer": {"class_name": "Zeros", "config": {}}, "dilation_rate": [1, 1], "kernel_constraint": null, "bias_constraint": null, "trainable": true, "name": "conv2d_52", "kernel_size": [1, 1], "strides": [1, 1], "padding": "same", "activity_regularizer": null, "activation": "linear"}}, {"name": "conv2d_57", "class_name": "Conv2D", "inbound_nodes": [[["activation_56", 0, 0, {}]]], "config": {"data_format": "channels_last", "kernel_regularizer": null, "filters": 160, "bias_regularizer": null, "kernel_initializer": {"class_name": "VarianceScaling", "config": {"seed": null, "scale": 1.0, "distribution": "uniform", "mode": "fan_avg"}}, "use_bias": false, "bias_initializer": {"class_name": "Zeros", "config": {}}, "dilation_rate": [1, 1], "kernel_constraint": null, "bias_constraint": null, "trainable": true, "name": "conv2d_57", "kernel_size": [1, 7], "strides": [1, 1], "padding": "same", "activity_regularizer": null, "activation": "linear"}}, {"name": "batch_normalization_52", "class_name": "BatchNormalization", "inbound_nodes": [[["conv2d_52", 0, 0, {}]]], "config": {"scale": false, "axis": 3, "momentum": 0.99, "beta_regularizer": null, "beta_constraint": null, "moving_variance_initializer": {"class_name": "Ones", "config": {}}, "trainable": true, "epsilon": 0.001, "name": "batch_normalization_52", "gamma_regularizer": null, "beta_initializer": {"class_name": "Zeros", "config": {}}, "center": true, "gamma_initializer": {"class_name": "Ones", "config": {}}, "gamma_constraint": null, "moving_mean_initializer": {"class_name": "Zeros", "config": {}}}}, {"name": "batch_normalization_57", "class_name": "BatchNormalization", "inbound_nodes": [[["conv2d_57", 0, 0, {}]]], "config": {"scale": false, "axis": 3, "momentum": 0.99, "beta_regularizer": null, "beta_constraint": null, "moving_variance_initializer": {"class_name": "Ones", "config": {}}, "trainable": true, "epsilon": 0.001, "name": "batch_normalization_57", "gamma_regularizer": null, "beta_initializer": {"class_name": "Zeros", "config": {}}, "center": true, "gamma_initializer": {"class_name": "Ones", "config": {}}, "gamma_constraint": null, "moving_mean_initializer": {"class_name": "Zeros", "config": {}}}}, {"name": "activation_52", "class_name": "Activation", "inbound_nodes": [[["batch_normalization_52", 0, 0, {}]]], "config": {"trainable": true, "name": "activation_52", "activation": "relu"}}, {"name": "activation_57", "class_name": "Activation", "inbound_nodes": [[["batch_normalization_57", 0, 0, {}]]], "config": {"trainable": true, "name": "activation_57", "activation": "relu"}}, {"name": "conv2d_53", "class_name": "Conv2D", "inbound_nodes": [[["activation_52", 0, 0, {}]]], "config": {"data_format": "channels_last", "kernel_regularizer": null, "filters": 160, "bias_regularizer": null, "kernel_initializer": {"class_name": "VarianceScaling", "config": {"seed": null, "scale": 1.0, "distribution": "uniform", "mode": "fan_avg"}}, "use_bias": false, "bias_initializer": {"class_name": "Zeros", "config": {}}, "dilation_rate": [1, 1], "kernel_constraint": null, "bias_constraint": null, "trainable": true, "name": "conv2d_53", "kernel_size": [1, 7], "strides": [1, 1], "padding": "same", "activity_regularizer": null, "activation": "linear"}}, {"name": "conv2d_58", "class_name": "Conv2D", "inbound_nodes": [[["activation_57", 0, 0, {}]]], "config": {"data_format": "channels_last", "kernel_regularizer": null, "filters": 160, "bias_regularizer": null, "kernel_initializer": {"class_name": "VarianceScaling", "config": {"seed": null, "scale": 1.0, "distribution": "uniform", "mode": "fan_avg"}}, "use_bias": false, "bias_initializer": {"class_name": "Zeros", "config": {}}, "dilation_rate": [1, 1], "kernel_constraint": null, "bias_constraint": null, "trainable": true, "name": "conv2d_58", "kernel_size": [7, 1], "strides": [1, 1], "padding": "same", "activity_regularizer": null, "activation": "linear"}}, {"name": "batch_normalization_53", "class_name": "BatchNormalization", "inbound_nodes": [[["conv2d_53", 0, 0, {}]]], "config": {"scale": false, "axis": 3, "momentum": 0.99, "beta_regularizer": null, "beta_constraint": null, "moving_variance_initializer": {"class_name": "Ones", "config": {}}, "trainable": true, "epsilon": 0.001, "name": "batch_normalization_53", "gamma_regularizer": null, "beta_initializer": {"class_name": "Zeros", "config": {}}, "center": true, "gamma_initializer": {"class_name": "Ones", "config": {}}, "gamma_constraint": null, "moving_mean_initializer": {"class_name": "Zeros", "config": {}}}}, {"name": "batch_normalization_58", "class_name": "BatchNormalization", "inbound_nodes": [[["conv2d_58", 0, 0, {}]]], "config": {"scale": false, "axis": 3, "momentum": 0.99, "beta_regularizer": null, "beta_constraint": null, "moving_variance_initializer": {"class_name": "Ones", "config": {}}, "trainable": true, "epsilon": 0.001, "name": "batch_normalization_58", "gamma_regularizer": null, "beta_initializer": {"class_name": "Zeros", "config": {}}, "center": true, "gamma_initializer": {"class_name": "Ones", "config": {}}, "gamma_constraint": null, "moving_mean_initializer": {"class_name": "Zeros", "config": {}}}}, {"name": "activation_53", "class_name": "Activation", "inbound_nodes": [[["batch_normalization_53", 0, 0, {}]]], "config": {"trainable": true, "name": "activation_53", "activation": "relu"}}, {"name": "activation_58", "class_name": "Activation", "inbound_nodes": [[["batch_normalization_58", 0, 0, {}]]], "config": {"trainable": true, "name": "activation_58", "activation": "relu"}}, {"name": "average_pooling2d_6", "class_name": "AveragePooling2D", "inbound_nodes": [[["mixed5", 0, 0, {}]]], "config": {"trainable": true, "data_format": "channels_last", "name": "average_pooling2d_6", "strides": [1, 1], "padding": "same", "pool_size": [3, 3]}}, {"name": "conv2d_51", "class_name": "Conv2D", "inbound_nodes": [[["mixed5", 0, 0, {}]]], "config": {"data_format": "channels_last", "kernel_regularizer": null, "filters": 192, "bias_regularizer": null, "kernel_initializer": {"class_name": "VarianceScaling", "config": {"seed": null, "scale": 1.0, "distribution": "uniform", "mode": "fan_avg"}}, "use_bias": false, "bias_initializer": {"class_name": "Zeros", "config": {}}, "dilation_rate": [1, 1], "kernel_constraint": null, "bias_constraint": null, "trainable": true, "name": "conv2d_51", "kernel_size": [1, 1], "strides": [1, 1], "padding": "same", "activity_regularizer": null, "activation": "linear"}}, {"name": "conv2d_54", "class_name": "Conv2D", "inbound_nodes": [[["activation_53", 0, 0, {}]]], "config": {"data_format": "channels_last", "kernel_regularizer": null, "filters": 192, "bias_regularizer": null, "kernel_initializer": {"class_name": "VarianceScaling", "config": {"seed": null, "scale": 1.0, "distribution": "uniform", "mode": "fan_avg"}}, "use_bias": false, "bias_initializer": {"class_name": "Zeros", "config": {}}, "dilation_rate": [1, 1], "kernel_constraint": null, "bias_constraint": null, "trainable": true, "name": "conv2d_54", "kernel_size": [7, 1], "strides": [1, 1], "padding": "same", "activity_regularizer": null, "activation": "linear"}}, {"name": "conv2d_59", "class_name": "Conv2D", "inbound_nodes": [[["activation_58", 0, 0, {}]]], "config": {"data_format": "channels_last", "kernel_regularizer": null, "filters": 192, "bias_regularizer": null, "kernel_initializer": {"class_name": "VarianceScaling", "config": {"seed": null, "scale": 1.0, "distribution": "uniform", "mode": "fan_avg"}}, "use_bias": false, "bias_initializer": {"class_name": "Zeros", "config": {}}, "dilation_rate": [1, 1], "kernel_constraint": null, "bias_constraint": null, "trainable": true, "name": "conv2d_59", "kernel_size": [1, 7], "strides": [1, 1], "padding": "same", "activity_regularizer": null, "activation": "linear"}}, {"name": "conv2d_60", "class_name": "Conv2D", "inbound_nodes": [[["average_pooling2d_6", 0, 0, {}]]], "config": {"data_format": "channels_last", "kernel_regularizer": null, "filters": 192, "bias_regularizer": null, "kernel_initializer": {"class_name": "VarianceScaling", "config": {"seed": null, "scale": 1.0, "distribution": "uniform", "mode": "fan_avg"}}, "use_bias": false, "bias_initializer": {"class_name": "Zeros", "config": {}}, "dilation_rate": [1, 1], "kernel_constraint": null, "bias_constraint": null, "trainable": true, "name": "conv2d_60", "kernel_size": [1, 1], "strides": [1, 1], "padding": "same", "activity_regularizer": null, "activation": "linear"}}, {"name": "batch_normalization_51", "class_name": "BatchNormalization", "inbound_nodes": [[["conv2d_51", 0, 0, {}]]], "config": {"scale": false, "axis": 3, "momentum": 0.99, "beta_regularizer": null, "beta_constraint": null, "moving_variance_initializer": {"class_name": "Ones", "config": {}}, "trainable": true, "epsilon": 0.001, "name": "batch_normalization_51", "gamma_regularizer": null, "beta_initializer": {"class_name": "Zeros", "config": {}}, "center": true, "gamma_initializer": {"class_name": "Ones", "config": {}}, "gamma_constraint": null, "moving_mean_initializer": {"class_name": "Zeros", "config": {}}}}, {"name": "batch_normalization_54", "class_name": "BatchNormalization", "inbound_nodes": [[["conv2d_54", 0, 0, {}]]], "config": {"scale": false, "axis": 3, "momentum": 0.99, "beta_regularizer": null, "beta_constraint": null, "moving_variance_initializer": {"class_name": "Ones", "config": {}}, "trainable": true, "epsilon": 0.001, "name": "batch_normalization_54", "gamma_regularizer": null, "beta_initializer": {"class_name": "Zeros", "config": {}}, "center": true, "gamma_initializer": {"class_name": "Ones", "config": {}}, "gamma_constraint": null, "moving_mean_initializer": {"class_name": "Zeros", "config": {}}}}, {"name": "batch_normalization_59", "class_name": "BatchNormalization", "inbound_nodes": [[["conv2d_59", 0, 0, {}]]], "config": {"scale": false, "axis": 3, "momentum": 0.99, "beta_regularizer": null, "beta_constraint": null, "moving_variance_initializer": {"class_name": "Ones", "config": {}}, "trainable": true, "epsilon": 0.001, "name": "batch_normalization_59", "gamma_regularizer": null, "beta_initializer": {"class_name": "Zeros", "config": {}}, "center": true, "gamma_initializer": {"class_name": "Ones", "config": {}}, "gamma_constraint": null, "moving_mean_initializer": {"class_name": "Zeros", "config": {}}}}, {"name": "batch_normalization_60", "class_name": "BatchNormalization", "inbound_nodes": [[["conv2d_60", 0, 0, {}]]], "config": {"scale": false, "axis": 3, "momentum": 0.99, "beta_regularizer": null, "beta_constraint": null, "moving_variance_initializer": {"class_name": "Ones", "config": {}}, "trainable": true, "epsilon": 0.001, "name": "batch_normalization_60", "gamma_regularizer": null, "beta_initializer": {"class_name": "Zeros", "config": {}}, "center": true, "gamma_initializer": {"class_name": "Ones", "config": {}}, "gamma_constraint": null, "moving_mean_initializer": {"class_name": "Zeros", "config": {}}}}, {"name": "activation_51", "class_name": "Activation", "inbound_nodes": [[["batch_normalization_51", 0, 0, {}]]], "config": {"trainable": true, "name": "activation_51", "activation": "relu"}}, {"name": "activation_54", "class_name": "Activation", "inbound_nodes": [[["batch_normalization_54", 0, 0, {}]]], "config": {"trainable": true, "name": "activation_54", "activation": "relu"}}, {"name": "activation_59", "class_name": "Activation", "inbound_nodes": [[["batch_normalization_59", 0, 0, {}]]], "config": {"trainable": true, "name": "activation_59", "activation": "relu"}}, {"name": "activation_60", "class_name": "Activation", "inbound_nodes": [[["batch_normalization_60", 0, 0, {}]]], "config": {"trainable": true, "name": "activation_60", "activation": "relu"}}, {"name": "mixed6", "class_name": "Concatenate", "inbound_nodes": [[["activation_51", 0, 0, {}], ["activation_54", 0, 0, {}], ["activation_59", 0, 0, {}], ["activation_60", 0, 0, {}]]], "config": {"trainable": true, "name": "mixed6", "axis": 3}}, {"name": "conv2d_65", "class_name": "Conv2D", "inbound_nodes": [[["mixed6", 0, 0, {}]]], "config": {"data_format": "channels_last", "kernel_regularizer": null, "filters": 192, "bias_regularizer": null, "kernel_initializer": {"class_name": "VarianceScaling", "config": {"seed": null, "scale": 1.0, "distribution": "uniform", "mode": "fan_avg"}}, "use_bias": false, "bias_initializer": {"class_name": "Zeros", "config": {}}, "dilation_rate": [1, 1], "kernel_constraint": null, "bias_constraint": null, "trainable": true, "name": "conv2d_65", "kernel_size": [1, 1], "strides": [1, 1], "padding": "same", "activity_regularizer": null, "activation": "linear"}}, {"name": "batch_normalization_65", "class_name": "BatchNormalization", "inbound_nodes": [[["conv2d_65", 0, 0, {}]]], "config": {"scale": false, "axis": 3, "momentum": 0.99, "beta_regularizer": null, "beta_constraint": null, "moving_variance_initializer": {"class_name": "Ones", "config": {}}, "trainable": true, "epsilon": 0.001, "name": "batch_normalization_65", "gamma_regularizer": null, "beta_initializer": {"class_name": "Zeros", "config": {}}, "center": true, "gamma_initializer": {"class_name": "Ones", "config": {}}, "gamma_constraint": null, "moving_mean_initializer": {"class_name": "Zeros", "config": {}}}}, {"name": "activation_65", "class_name": "Activation", "inbound_nodes": [[["batch_normalization_65", 0, 0, {}]]], "config": {"trainable": true, "name": "activation_65", "activation": "relu"}}, {"name": "conv2d_66", "class_name": "Conv2D", "inbound_nodes": [[["activation_65", 0, 0, {}]]], "config": {"data_format": "channels_last", "kernel_regularizer": null, "filters": 192, "bias_regularizer": null, "kernel_initializer": {"class_name": "VarianceScaling", "config": {"seed": null, "scale": 1.0, "distribution": "uniform", "mode": "fan_avg"}}, "use_bias": false, "bias_initializer": {"class_name": "Zeros", "config": {}}, "dilation_rate": [1, 1], "kernel_constraint": null, "bias_constraint": null, "trainable": true, "name": "conv2d_66", "kernel_size": [7, 1], "strides": [1, 1], "padding": "same", "activity_regularizer": null, "activation": "linear"}}, {"name": "batch_normalization_66", "class_name": "BatchNormalization", "inbound_nodes": [[["conv2d_66", 0, 0, {}]]], "config": {"scale": false, "axis": 3, "momentum": 0.99, "beta_regularizer": null, "beta_constraint": null, "moving_variance_initializer": {"class_name": "Ones", "config": {}}, "trainable": true, "epsilon": 0.001, "name": "batch_normalization_66", "gamma_regularizer": null, "beta_initializer": {"class_name": "Zeros", "config": {}}, "center": true, "gamma_initializer": {"class_name": "Ones", "config": {}}, "gamma_constraint": null, "moving_mean_initializer": {"class_name": "Zeros", "config": {}}}}, {"name": "activation_66", "class_name": "Activation", "inbound_nodes": [[["batch_normalization_66", 0, 0, {}]]], "config": {"trainable": true, "name": "activation_66", "activation": "relu"}}, {"name": "conv2d_62", "class_name": "Conv2D", "inbound_nodes": [[["mixed6", 0, 0, {}]]], "config": {"data_format": "channels_last", "kernel_regularizer": null, "filters": 192, "bias_regularizer": null, "kernel_initializer": {"class_name": "VarianceScaling", "config": {"seed": null, "scale": 1.0, "distribution": "uniform", "mode": "fan_avg"}}, "use_bias": false, "bias_initializer": {"class_name": "Zeros", "config": {}}, "dilation_rate": [1, 1], "kernel_constraint": null, "bias_constraint": null, "trainable": true, "name": "conv2d_62", "kernel_size": [1, 1], "strides": [1, 1], "padding": "same", "activity_regularizer": null, "activation": "linear"}}, {"name": "conv2d_67", "class_name": "Conv2D", "inbound_nodes": [[["activation_66", 0, 0, {}]]], "config": {"data_format": "channels_last", "kernel_regularizer": null, "filters": 192, "bias_regularizer": null, "kernel_initializer": {"class_name": "VarianceScaling", "config": {"seed": null, "scale": 1.0, "distribution": "uniform", "mode": "fan_avg"}}, "use_bias": false, "bias_initializer": {"class_name": "Zeros", "config": {}}, "dilation_rate": [1, 1], "kernel_constraint": null, "bias_constraint": null, "trainable": true, "name": "conv2d_67", "kernel_size": [1, 7], "strides": [1, 1], "padding": "same", "activity_regularizer": null, "activation": "linear"}}, {"name": "batch_normalization_62", "class_name": "BatchNormalization", "inbound_nodes": [[["conv2d_62", 0, 0, {}]]], "config": {"scale": false, "axis": 3, "momentum": 0.99, "beta_regularizer": null, "beta_constraint": null, "moving_variance_initializer": {"class_name": "Ones", "config": {}}, "trainable": true, "epsilon": 0.001, "name": "batch_normalization_62", "gamma_regularizer": null, "beta_initializer": {"class_name": "Zeros", "config": {}}, "center": true, "gamma_initializer": {"class_name": "Ones", "config": {}}, "gamma_constraint": null, "moving_mean_initializer": {"class_name": "Zeros", "config": {}}}}, {"name": "batch_normalization_67", "class_name": "BatchNormalization", "inbound_nodes": [[["conv2d_67", 0, 0, {}]]], "config": {"scale": false, "axis": 3, "momentum": 0.99, "beta_regularizer": null, "beta_constraint": null, "moving_variance_initializer": {"class_name": "Ones", "config": {}}, "trainable": true, "epsilon": 0.001, "name": "batch_normalization_67", "gamma_regularizer": null, "beta_initializer": {"class_name": "Zeros", "config": {}}, "center": true, "gamma_initializer": {"class_name": "Ones", "config": {}}, "gamma_constraint": null, "moving_mean_initializer": {"class_name": "Zeros", "config": {}}}}, {"name": "activation_62", "class_name": "Activation", "inbound_nodes": [[["batch_normalization_62", 0, 0, {}]]], "config": {"trainable": true, "name": "activation_62", "activation": "relu"}}, {"name": "activation_67", "class_name": "Activation", "inbound_nodes": [[["batch_normalization_67", 0, 0, {}]]], "config": {"trainable": true, "name": "activation_67", "activation": "relu"}}, {"name": "conv2d_63", "class_name": "Conv2D", "inbound_nodes": [[["activation_62", 0, 0, {}]]], "config": {"data_format": "channels_last", "kernel_regularizer": null, "filters": 192, "bias_regularizer": null, "kernel_initializer": {"class_name": "VarianceScaling", "config": {"seed": null, "scale": 1.0, "distribution": "uniform", "mode": "fan_avg"}}, "use_bias": false, "bias_initializer": {"class_name": "Zeros", "config": {}}, "dilation_rate": [1, 1], "kernel_constraint": null, "bias_constraint": null, "trainable": true, "name": "conv2d_63", "kernel_size": [1, 7], "strides": [1, 1], "padding": "same", "activity_regularizer": null, "activation": "linear"}}, {"name": "conv2d_68", "class_name": "Conv2D", "inbound_nodes": [[["activation_67", 0, 0, {}]]], "config": {"data_format": "channels_last", "kernel_regularizer": null, "filters": 192, "bias_regularizer": null, "kernel_initializer": {"class_name": "VarianceScaling", "config": {"seed": null, "scale": 1.0, "distribution": "uniform", "mode": "fan_avg"}}, "use_bias": false, "bias_initializer": {"class_name": "Zeros", "config": {}}, "dilation_rate": [1, 1], "kernel_constraint": null, "bias_constraint": null, "trainable": true, "name": "conv2d_68", "kernel_size": [7, 1], "strides": [1, 1], "padding": "same", "activity_regularizer": null, "activation": "linear"}}, {"name": "batch_normalization_63", "class_name": "BatchNormalization", "inbound_nodes": [[["conv2d_63", 0, 0, {}]]], "config": {"scale": false, "axis": 3, "momentum": 0.99, "beta_regularizer": null, "beta_constraint": null, "moving_variance_initializer": {"class_name": "Ones", "config": {}}, "trainable": true, "epsilon": 0.001, "name": "batch_normalization_63", "gamma_regularizer": null, "beta_initializer": {"class_name": "Zeros", "config": {}}, "center": true, "gamma_initializer": {"class_name": "Ones", "config": {}}, "gamma_constraint": null, "moving_mean_initializer": {"class_name": "Zeros", "config": {}}}}, {"name": "batch_normalization_68", "class_name": "BatchNormalization", "inbound_nodes": [[["conv2d_68", 0, 0, {}]]], "config": {"scale": false, "axis": 3, "momentum": 0.99, "beta_regularizer": null, "beta_constraint": null, "moving_variance_initializer": {"class_name": "Ones", "config": {}}, "trainable": true, "epsilon": 0.001, "name": "batch_normalization_68", "gamma_regularizer": null, "beta_initializer": {"class_name": "Zeros", "config": {}}, "center": true, "gamma_initializer": {"class_name": "Ones", "config": {}}, "gamma_constraint": null, "moving_mean_initializer": {"class_name": "Zeros", "config": {}}}}, {"name": "activation_63", "class_name": "Activation", "inbound_nodes": [[["batch_normalization_63", 0, 0, {}]]], "config": {"trainable": true, "name": "activation_63", "activation": "relu"}}, {"name": "activation_68", "class_name": "Activation", "inbound_nodes": [[["batch_normalization_68", 0, 0, {}]]], "config": {"trainable": true, "name": "activation_68", "activation": "relu"}}, {"name": "average_pooling2d_7", "class_name": "AveragePooling2D", "inbound_nodes": [[["mixed6", 0, 0, {}]]], "config": {"trainable": true, "data_format": "channels_last", "name": "average_pooling2d_7", "strides": [1, 1], "padding": "same", "pool_size": [3, 3]}}, {"name": "conv2d_61", "class_name": "Conv2D", "inbound_nodes": [[["mixed6", 0, 0, {}]]], "config": {"data_format": "channels_last", "kernel_regularizer": null, "filters": 192, "bias_regularizer": null, "kernel_initializer": {"class_name": "VarianceScaling", "config": {"seed": null, "scale": 1.0, "distribution": "uniform", "mode": "fan_avg"}}, "use_bias": false, "bias_initializer": {"class_name": "Zeros", "config": {}}, "dilation_rate": [1, 1], "kernel_constraint": null, "bias_constraint": null, "trainable": true, "name": "conv2d_61", "kernel_size": [1, 1], "strides": [1, 1], "padding": "same", "activity_regularizer": null, "activation": "linear"}}, {"name": "conv2d_64", "class_name": "Conv2D", "inbound_nodes": [[["activation_63", 0, 0, {}]]], "config": {"data_format": "channels_last", "kernel_regularizer": null, "filters": 192, "bias_regularizer": null, "kernel_initializer": {"class_name": "VarianceScaling", "config": {"seed": null, "scale": 1.0, "distribution": "uniform", "mode": "fan_avg"}}, "use_bias": false, "bias_initializer": {"class_name": "Zeros", "config": {}}, "dilation_rate": [1, 1], "kernel_constraint": null, "bias_constraint": null, "trainable": true, "name": "conv2d_64", "kernel_size": [7, 1], "strides": [1, 1], "padding": "same", "activity_regularizer": null, "activation": "linear"}}, {"name": "conv2d_69", "class_name": "Conv2D", "inbound_nodes": [[["activation_68", 0, 0, {}]]], "config": {"data_format": "channels_last", "kernel_regularizer": null, "filters": 192, "bias_regularizer": null, "kernel_initializer": {"class_name": "VarianceScaling", "config": {"seed": null, "scale": 1.0, "distribution": "uniform", "mode": "fan_avg"}}, "use_bias": false, "bias_initializer": {"class_name": "Zeros", "config": {}}, "dilation_rate": [1, 1], "kernel_constraint": null, "bias_constraint": null, "trainable": true, "name": "conv2d_69", "kernel_size": [1, 7], "strides": [1, 1], "padding": "same", "activity_regularizer": null, "activation": "linear"}}, {"name": "conv2d_70", "class_name": "Conv2D", "inbound_nodes": [[["average_pooling2d_7", 0, 0, {}]]], "config": {"data_format": "channels_last", "kernel_regularizer": null, "filters": 192, "bias_regularizer": null, "kernel_initializer": {"class_name": "VarianceScaling", "config": {"seed": null, "scale": 1.0, "distribution": "uniform", "mode": "fan_avg"}}, "use_bias": false, "bias_initializer": {"class_name": "Zeros", "config": {}}, "dilation_rate": [1, 1], "kernel_constraint": null, "bias_constraint": null, "trainable": true, "name": "conv2d_70", "kernel_size": [1, 1], "strides": [1, 1], "padding": "same", "activity_regularizer": null, "activation": "linear"}}, {"name": "batch_normalization_61", "class_name": "BatchNormalization", "inbound_nodes": [[["conv2d_61", 0, 0, {}]]], "config": {"scale": false, "axis": 3, "momentum": 0.99, "beta_regularizer": null, "beta_constraint": null, "moving_variance_initializer": {"class_name": "Ones", "config": {}}, "trainable": true, "epsilon": 0.001, "name": "batch_normalization_61", "gamma_regularizer": null, "beta_initializer": {"class_name": "Zeros", "config": {}}, "center": true, "gamma_initializer": {"class_name": "Ones", "config": {}}, "gamma_constraint": null, "moving_mean_initializer": {"class_name": "Zeros", "config": {}}}}, {"name": "batch_normalization_64", "class_name": "BatchNormalization", "inbound_nodes": [[["conv2d_64", 0, 0, {}]]], "config": {"scale": false, "axis": 3, "momentum": 0.99, "beta_regularizer": null, "beta_constraint": null, "moving_variance_initializer": {"class_name": "Ones", "config": {}}, "trainable": true, "epsilon": 0.001, "name": "batch_normalization_64", "gamma_regularizer": null, "beta_initializer": {"class_name": "Zeros", "config": {}}, "center": true, "gamma_initializer": {"class_name": "Ones", "config": {}}, "gamma_constraint": null, "moving_mean_initializer": {"class_name": "Zeros", "config": {}}}}, {"name": "batch_normalization_69", "class_name": "BatchNormalization", "inbound_nodes": [[["conv2d_69", 0, 0, {}]]], "config": {"scale": false, "axis": 3, "momentum": 0.99, "beta_regularizer": null, "beta_constraint": null, "moving_variance_initializer": {"class_name": "Ones", "config": {}}, "trainable": true, "epsilon": 0.001, "name": "batch_normalization_69", "gamma_regularizer": null, "beta_initializer": {"class_name": "Zeros", "config": {}}, "center": true, "gamma_initializer": {"class_name": "Ones", "config": {}}, "gamma_constraint": null, "moving_mean_initializer": {"class_name": "Zeros", "config": {}}}}, {"name": "batch_normalization_70", "class_name": "BatchNormalization", "inbound_nodes": [[["conv2d_70", 0, 0, {}]]], "config": {"scale": false, "axis": 3, "momentum": 0.99, "beta_regularizer": null, "beta_constraint": null, "moving_variance_initializer": {"class_name": "Ones", "config": {}}, "trainable": true, "epsilon": 0.001, "name": "batch_normalization_70", "gamma_regularizer": null, "beta_initializer": {"class_name": "Zeros", "config": {}}, "center": true, "gamma_initializer": {"class_name": "Ones", "config": {}}, "gamma_constraint": null, "moving_mean_initializer": {"class_name": "Zeros", "config": {}}}}, {"name": "activation_61", "class_name": "Activation", "inbound_nodes": [[["batch_normalization_61", 0, 0, {}]]], "config": {"trainable": true, "name": "activation_61", "activation": "relu"}}, {"name": "activation_64", "class_name": "Activation", "inbound_nodes": [[["batch_normalization_64", 0, 0, {}]]], "config": {"trainable": true, "name": "activation_64", "activation": "relu"}}, {"name": "activation_69", "class_name": "Activation", "inbound_nodes": [[["batch_normalization_69", 0, 0, {}]]], "config": {"trainable": true, "name": "activation_69", "activation": "relu"}}, {"name": "activation_70", "class_name": "Activation", "inbound_nodes": [[["batch_normalization_70", 0, 0, {}]]], "config": {"trainable": true, "name": "activation_70", "activation": "relu"}}, {"name": "mixed7", "class_name": "Concatenate", "inbound_nodes": [[["activation_61", 0, 0, {}], ["activation_64", 0, 0, {}], ["activation_69", 0, 0, {}], ["activation_70", 0, 0, {}]]], "config": {"trainable": true, "name": "mixed7", "axis": 3}}, {"name": "conv2d_73", "class_name": "Conv2D", "inbound_nodes": [[["mixed7", 0, 0, {}]]], "config": {"data_format": "channels_last", "kernel_regularizer": null, "filters": 192, "bias_regularizer": null, "kernel_initializer": {"class_name": "VarianceScaling", "config": {"seed": null, "scale": 1.0, "distribution": "uniform", "mode": "fan_avg"}}, "use_bias": false, "bias_initializer": {"class_name": "Zeros", "config": {}}, "dilation_rate": [1, 1], "kernel_constraint": null, "bias_constraint": null, "trainable": true, "name": "conv2d_73", "kernel_size": [1, 1], "strides": [1, 1], "padding": "same", "activity_regularizer": null, "activation": "linear"}}, {"name": "batch_normalization_73", "class_name": "BatchNormalization", "inbound_nodes": [[["conv2d_73", 0, 0, {}]]], "config": {"scale": false, "axis": 3, "momentum": 0.99, "beta_regularizer": null, "beta_constraint": null, "moving_variance_initializer": {"class_name": "Ones", "config": {}}, "trainable": true, "epsilon": 0.001, "name": "batch_normalization_73", "gamma_regularizer": null, "beta_initializer": {"class_name": "Zeros", "config": {}}, "center": true, "gamma_initializer": {"class_name": "Ones", "config": {}}, "gamma_constraint": null, "moving_mean_initializer": {"class_name": "Zeros", "config": {}}}}, {"name": "activation_73", "class_name": "Activation", "inbound_nodes": [[["batch_normalization_73", 0, 0, {}]]], "config": {"trainable": true, "name": "activation_73", "activation": "relu"}}, {"name": "conv2d_74", "class_name": "Conv2D", "inbound_nodes": [[["activation_73", 0, 0, {}]]], "config": {"data_format": "channels_last", "kernel_regularizer": null, "filters": 192, "bias_regularizer": null, "kernel_initializer": {"class_name": "VarianceScaling", "config": {"seed": null, "scale": 1.0, "distribution": "uniform", "mode": "fan_avg"}}, "use_bias": false, "bias_initializer": {"class_name": "Zeros", "config": {}}, "dilation_rate": [1, 1], "kernel_constraint": null, "bias_constraint": null, "trainable": true, "name": "conv2d_74", "kernel_size": [1, 7], "strides": [1, 1], "padding": "same", "activity_regularizer": null, "activation": "linear"}}, {"name": "batch_normalization_74", "class_name": "BatchNormalization", "inbound_nodes": [[["conv2d_74", 0, 0, {}]]], "config": {"scale": false, "axis": 3, "momentum": 0.99, "beta_regularizer": null, "beta_constraint": null, "moving_variance_initializer": {"class_name": "Ones", "config": {}}, "trainable": true, "epsilon": 0.001, "name": "batch_normalization_74", "gamma_regularizer": null, "beta_initializer": {"class_name": "Zeros", "config": {}}, "center": true, "gamma_initializer": {"class_name": "Ones", "config": {}}, "gamma_constraint": null, "moving_mean_initializer": {"class_name": "Zeros", "config": {}}}}, {"name": "activation_74", "class_name": "Activation", "inbound_nodes": [[["batch_normalization_74", 0, 0, {}]]], "config": {"trainable": true, "name": "activation_74", "activation": "relu"}}, {"name": "conv2d_71", "class_name": "Conv2D", "inbound_nodes": [[["mixed7", 0, 0, {}]]], "config": {"data_format": "channels_last", "kernel_regularizer": null, "filters": 192, "bias_regularizer": null, "kernel_initializer": {"class_name": "VarianceScaling", "config": {"seed": null, "scale": 1.0, "distribution": "uniform", "mode": "fan_avg"}}, "use_bias": false, "bias_initializer": {"class_name": "Zeros", "config": {}}, "dilation_rate": [1, 1], "kernel_constraint": null, "bias_constraint": null, "trainable": true, "name": "conv2d_71", "kernel_size": [1, 1], "strides": [1, 1], "padding": "same", "activity_regularizer": null, "activation": "linear"}}, {"name": "conv2d_75", "class_name": "Conv2D", "inbound_nodes": [[["activation_74", 0, 0, {}]]], "config": {"data_format": "channels_last", "kernel_regularizer": null, "filters": 192, "bias_regularizer": null, "kernel_initializer": {"class_name": "VarianceScaling", "config": {"seed": null, "scale": 1.0, "distribution": "uniform", "mode": "fan_avg"}}, "use_bias": false, "bias_initializer": {"class_name": "Zeros", "config": {}}, "dilation_rate": [1, 1], "kernel_constraint": null, "bias_constraint": null, "trainable": true, "name": "conv2d_75", "kernel_size": [7, 1], "strides": [1, 1], "padding": "same", "activity_regularizer": null, "activation": "linear"}}, {"name": "batch_normalization_71", "class_name": "BatchNormalization", "inbound_nodes": [[["conv2d_71", 0, 0, {}]]], "config": {"scale": false, "axis": 3, "momentum": 0.99, "beta_regularizer": null, "beta_constraint": null, "moving_variance_initializer": {"class_name": "Ones", "config": {}}, "trainable": true, "epsilon": 0.001, "name": "batch_normalization_71", "gamma_regularizer": null, "beta_initializer": {"class_name": "Zeros", "config": {}}, "center": true, "gamma_initializer": {"class_name": "Ones", "config": {}}, "gamma_constraint": null, "moving_mean_initializer": {"class_name": "Zeros", "config": {}}}}, {"name": "batch_normalization_75", "class_name": "BatchNormalization", "inbound_nodes": [[["conv2d_75", 0, 0, {}]]], "config": {"scale": false, "axis": 3, "momentum": 0.99, "beta_regularizer": null, "beta_constraint": null, "moving_variance_initializer": {"class_name": "Ones", "config": {}}, "trainable": true, "epsilon": 0.001, "name": "batch_normalization_75", "gamma_regularizer": null, "beta_initializer": {"class_name": "Zeros", "config": {}}, "center": true, "gamma_initializer": {"class_name": "Ones", "config": {}}, "gamma_constraint": null, "moving_mean_initializer": {"class_name": "Zeros", "config": {}}}}, {"name": "activation_71", "class_name": "Activation", "inbound_nodes": [[["batch_normalization_71", 0, 0, {}]]], "config": {"trainable": true, "name": "activation_71", "activation": "relu"}}, {"name": "activation_75", "class_name": "Activation", "inbound_nodes": [[["batch_normalization_75", 0, 0, {}]]], "config": {"trainable": true, "name": "activation_75", "activation": "relu"}}, {"name": "conv2d_72", "class_name": "Conv2D", "inbound_nodes": [[["activation_71", 0, 0, {}]]], "config": {"data_format": "channels_last", "kernel_regularizer": null, "filters": 320, "bias_regularizer": null, "kernel_initializer": {"class_name": "VarianceScaling", "config": {"seed": null, "scale": 1.0, "distribution": "uniform", "mode": "fan_avg"}}, "use_bias": false, "bias_initializer": {"class_name": "Zeros", "config": {}}, "dilation_rate": [1, 1], "kernel_constraint": null, "bias_constraint": null, "trainable": true, "name": "conv2d_72", "kernel_size": [3, 3], "strides": [2, 2], "padding": "valid", "activity_regularizer": null, "activation": "linear"}}, {"name": "conv2d_76", "class_name": "Conv2D", "inbound_nodes": [[["activation_75", 0, 0, {}]]], "config": {"data_format": "channels_last", "kernel_regularizer": null, "filters": 192, "bias_regularizer": null, "kernel_initializer": {"class_name": "VarianceScaling", "config": {"seed": null, "scale": 1.0, "distribution": "uniform", "mode": "fan_avg"}}, "use_bias": false, "bias_initializer": {"class_name": "Zeros", "config": {}}, "dilation_rate": [1, 1], "kernel_constraint": null, "bias_constraint": null, "trainable": true, "name": "conv2d_76", "kernel_size": [3, 3], "strides": [2, 2], "padding": "valid", "activity_regularizer": null, "activation": "linear"}}, {"name": "batch_normalization_72", "class_name": "BatchNormalization", "inbound_nodes": [[["conv2d_72", 0, 0, {}]]], "config": {"scale": false, "axis": 3, "momentum": 0.99, "beta_regularizer": null, "beta_constraint": null, "moving_variance_initializer": {"class_name": "Ones", "config": {}}, "trainable": true, "epsilon": 0.001, "name": "batch_normalization_72", "gamma_regularizer": null, "beta_initializer": {"class_name": "Zeros", "config": {}}, "center": true, "gamma_initializer": {"class_name": "Ones", "config": {}}, "gamma_constraint": null, "moving_mean_initializer": {"class_name": "Zeros", "config": {}}}}, {"name": "batch_normalization_76", "class_name": "BatchNormalization", "inbound_nodes": [[["conv2d_76", 0, 0, {}]]], "config": {"scale": false, "axis": 3, "momentum": 0.99, "beta_regularizer": null, "beta_constraint": null, "moving_variance_initializer": {"class_name": "Ones", "config": {}}, "trainable": true, "epsilon": 0.001, "name": "batch_normalization_76", "gamma_regularizer": null, "beta_initializer": {"class_name": "Zeros", "config": {}}, "center": true, "gamma_initializer": {"class_name": "Ones", "config": {}}, "gamma_constraint": null, "moving_mean_initializer": {"class_name": "Zeros", "config": {}}}}, {"name": "activation_72", "class_name": "Activation", "inbound_nodes": [[["batch_normalization_72", 0, 0, {}]]], "config": {"trainable": true, "name": "activation_72", "activation": "relu"}}, {"name": "activation_76", "class_name": "Activation", "inbound_nodes": [[["batch_normalization_76", 0, 0, {}]]], "config": {"trainable": true, "name": "activation_76", "activation": "relu"}}, {"name": "max_pooling2d_4", "class_name": "MaxPooling2D", "inbound_nodes": [[["mixed7", 0, 0, {}]]], "config": {"trainable": true, "data_format": "channels_last", "name": "max_pooling2d_4", "strides": [2, 2], "padding": "valid", "pool_size": [3, 3]}}, {"name": "mixed8", "class_name": "Concatenate", "inbound_nodes": [[["activation_72", 0, 0, {}], ["activation_76", 0, 0, {}], ["max_pooling2d_4", 0, 0, {}]]], "config": {"trainable": true, "name": "mixed8", "axis": 3}}, {"name": "conv2d_81", "class_name": "Conv2D", "inbound_nodes": [[["mixed8", 0, 0, {}]]], "config": {"data_format": "channels_last", "kernel_regularizer": null, "filters": 448, "bias_regularizer": null, "kernel_initializer": {"class_name": "VarianceScaling", "config": {"seed": null, "scale": 1.0, "distribution": "uniform", "mode": "fan_avg"}}, "use_bias": false, "bias_initializer": {"class_name": "Zeros", "config": {}}, "dilation_rate": [1, 1], "kernel_constraint": null, "bias_constraint": null, "trainable": true, "name": "conv2d_81", "kernel_size": [1, 1], "strides": [1, 1], "padding": "same", "activity_regularizer": null, "activation": "linear"}}, {"name": "batch_normalization_81", "class_name": "BatchNormalization", "inbound_nodes": [[["conv2d_81", 0, 0, {}]]], "config": {"scale": false, "axis": 3, "momentum": 0.99, "beta_regularizer": null, "beta_constraint": null, "moving_variance_initializer": {"class_name": "Ones", "config": {}}, "trainable": true, "epsilon": 0.001, "name": "batch_normalization_81", "gamma_regularizer": null, "beta_initializer": {"class_name": "Zeros", "config": {}}, "center": true, "gamma_initializer": {"class_name": "Ones", "config": {}}, "gamma_constraint": null, "moving_mean_initializer": {"class_name": "Zeros", "config": {}}}}, {"name": "activation_81", "class_name": "Activation", "inbound_nodes": [[["batch_normalization_81", 0, 0, {}]]], "config": {"trainable": true, "name": "activation_81", "activation": "relu"}}, {"name": "conv2d_78", "class_name": "Conv2D", "inbound_nodes": [[["mixed8", 0, 0, {}]]], "config": {"data_format": "channels_last", "kernel_regularizer": null, "filters": 384, "bias_regularizer": null, "kernel_initializer": {"class_name": "VarianceScaling", "config": {"seed": null, "scale": 1.0, "distribution": "uniform", "mode": "fan_avg"}}, "use_bias": false, "bias_initializer": {"class_name": "Zeros", "config": {}}, "dilation_rate": [1, 1], "kernel_constraint": null, "bias_constraint": null, "trainable": true, "name": "conv2d_78", "kernel_size": [1, 1], "strides": [1, 1], "padding": "same", "activity_regularizer": null, "activation": "linear"}}, {"name": "conv2d_82", "class_name": "Conv2D", "inbound_nodes": [[["activation_81", 0, 0, {}]]], "config": {"data_format": "channels_last", "kernel_regularizer": null, "filters": 384, "bias_regularizer": null, "kernel_initializer": {"class_name": "VarianceScaling", "config": {"seed": null, "scale": 1.0, "distribution": "uniform", "mode": "fan_avg"}}, "use_bias": false, "bias_initializer": {"class_name": "Zeros", "config": {}}, "dilation_rate": [1, 1], "kernel_constraint": null, "bias_constraint": null, "trainable": true, "name": "conv2d_82", "kernel_size": [3, 3], "strides": [1, 1], "padding": "same", "activity_regularizer": null, "activation": "linear"}}, {"name": "batch_normalization_78", "class_name": "BatchNormalization", "inbound_nodes": [[["conv2d_78", 0, 0, {}]]], "config": {"scale": false, "axis": 3, "momentum": 0.99, "beta_regularizer": null, "beta_constraint": null, "moving_variance_initializer": {"class_name": "Ones", "config": {}}, "trainable": true, "epsilon": 0.001, "name": "batch_normalization_78", "gamma_regularizer": null, "beta_initializer": {"class_name": "Zeros", "config": {}}, "center": true, "gamma_initializer": {"class_name": "Ones", "config": {}}, "gamma_constraint": null, "moving_mean_initializer": {"class_name": "Zeros", "config": {}}}}, {"name": "batch_normalization_82", "class_name": "BatchNormalization", "inbound_nodes": [[["conv2d_82", 0, 0, {}]]], "config": {"scale": false, "axis": 3, "momentum": 0.99, "beta_regularizer": null, "beta_constraint": null, "moving_variance_initializer": {"class_name": "Ones", "config": {}}, "trainable": true, "epsilon": 0.001, "name": "batch_normalization_82", "gamma_regularizer": null, "beta_initializer": {"class_name": "Zeros", "config": {}}, "center": true, "gamma_initializer": {"class_name": "Ones", "config": {}}, "gamma_constraint": null, "moving_mean_initializer": {"class_name": "Zeros", "config": {}}}}, {"name": "activation_78", "class_name": "Activation", "inbound_nodes": [[["batch_normalization_78", 0, 0, {}]]], "config": {"trainable": true, "name": "activation_78", "activation": "relu"}}, {"name": "activation_82", "class_name": "Activation", "inbound_nodes": [[["batch_normalization_82", 0, 0, {}]]], "config": {"trainable": true, "name": "activation_82", "activation": "relu"}}, {"name": "conv2d_79", "class_name": "Conv2D", "inbound_nodes": [[["activation_78", 0, 0, {}]]], "config": {"data_format": "channels_last", "kernel_regularizer": null, "filters": 384, "bias_regularizer": null, "kernel_initializer": {"class_name": "VarianceScaling", "config": {"seed": null, "scale": 1.0, "distribution": "uniform", "mode": "fan_avg"}}, "use_bias": false, "bias_initializer": {"class_name": "Zeros", "config": {}}, "dilation_rate": [1, 1], "kernel_constraint": null, "bias_constraint": null, "trainable": true, "name": "conv2d_79", "kernel_size": [1, 3], "strides": [1, 1], "padding": "same", "activity_regularizer": null, "activation": "linear"}}, {"name": "conv2d_80", "class_name": "Conv2D", "inbound_nodes": [[["activation_78", 0, 0, {}]]], "config": {"data_format": "channels_last", "kernel_regularizer": null, "filters": 384, "bias_regularizer": null, "kernel_initializer": {"class_name": "VarianceScaling", "config": {"seed": null, "scale": 1.0, "distribution": "uniform", "mode": "fan_avg"}}, "use_bias": false, "bias_initializer": {"class_name": "Zeros", "config": {}}, "dilation_rate": [1, 1], "kernel_constraint": null, "bias_constraint": null, "trainable": true, "name": "conv2d_80", "kernel_size": [3, 1], "strides": [1, 1], "padding": "same", "activity_regularizer": null, "activation": "linear"}}, {"name": "conv2d_83", "class_name": "Conv2D", "inbound_nodes": [[["activation_82", 0, 0, {}]]], "config": {"data_format": "channels_last", "kernel_regularizer": null, "filters": 384, "bias_regularizer": null, "kernel_initializer": {"class_name": "VarianceScaling", "config": {"seed": null, "scale": 1.0, "distribution": "uniform", "mode": "fan_avg"}}, "use_bias": false, "bias_initializer": {"class_name": "Zeros", "config": {}}, "dilation_rate": [1, 1], "kernel_constraint": null, "bias_constraint": null, "trainable": true, "name": "conv2d_83", "kernel_size": [1, 3], "strides": [1, 1], "padding": "same", "activity_regularizer": null, "activation": "linear"}}, {"name": "conv2d_84", "class_name": "Conv2D", "inbound_nodes": [[["activation_82", 0, 0, {}]]], "config": {"data_format": "channels_last", "kernel_regularizer": null, "filters": 384, "bias_regularizer": null, "kernel_initializer": {"class_name": "VarianceScaling", "config": {"seed": null, "scale": 1.0, "distribution": "uniform", "mode": "fan_avg"}}, "use_bias": false, "bias_initializer": {"class_name": "Zeros", "config": {}}, "dilation_rate": [1, 1], "kernel_constraint": null, "bias_constraint": null, "trainable": true, "name": "conv2d_84", "kernel_size": [3, 1], "strides": [1, 1], "padding": "same", "activity_regularizer": null, "activation": "linear"}}, {"name": "average_pooling2d_8", "class_name": "AveragePooling2D", "inbound_nodes": [[["mixed8", 0, 0, {}]]], "config": {"trainable": true, "data_format": "channels_last", "name": "average_pooling2d_8", "strides": [1, 1], "padding": "same", "pool_size": [3, 3]}}, {"name": "conv2d_77", "class_name": "Conv2D", "inbound_nodes": [[["mixed8", 0, 0, {}]]], "config": {"data_format": "channels_last", "kernel_regularizer": null, "filters": 320, "bias_regularizer": null, "kernel_initializer": {"class_name": "VarianceScaling", "config": {"seed": null, "scale": 1.0, "distribution": "uniform", "mode": "fan_avg"}}, "use_bias": false, "bias_initializer": {"class_name": "Zeros", "config": {}}, "dilation_rate": [1, 1], "kernel_constraint": null, "bias_constraint": null, "trainable": true, "name": "conv2d_77", "kernel_size": [1, 1], "strides": [1, 1], "padding": "same", "activity_regularizer": null, "activation": "linear"}}, {"name": "batch_normalization_79", "class_name": "BatchNormalization", "inbound_nodes": [[["conv2d_79", 0, 0, {}]]], "config": {"scale": false, "axis": 3, "momentum": 0.99, "beta_regularizer": null, "beta_constraint": null, "moving_variance_initializer": {"class_name": "Ones", "config": {}}, "trainable": true, "epsilon": 0.001, "name": "batch_normalization_79", "gamma_regularizer": null, "beta_initializer": {"class_name": "Zeros", "config": {}}, "center": true, "gamma_initializer": {"class_name": "Ones", "config": {}}, "gamma_constraint": null, "moving_mean_initializer": {"class_name": "Zeros", "config": {}}}}, {"name": "batch_normalization_80", "class_name": "BatchNormalization", "inbound_nodes": [[["conv2d_80", 0, 0, {}]]], "config": {"scale": false, "axis": 3, "momentum": 0.99, "beta_regularizer": null, "beta_constraint": null, "moving_variance_initializer": {"class_name": "Ones", "config": {}}, "trainable": true, "epsilon": 0.001, "name": "batch_normalization_80", "gamma_regularizer": null, "beta_initializer": {"class_name": "Zeros", "config": {}}, "center": true, "gamma_initializer": {"class_name": "Ones", "config": {}}, "gamma_constraint": null, "moving_mean_initializer": {"class_name": "Zeros", "config": {}}}}, {"name": "batch_normalization_83", "class_name": "BatchNormalization", "inbound_nodes": [[["conv2d_83", 0, 0, {}]]], "config": {"scale": false, "axis": 3, "momentum": 0.99, "beta_regularizer": null, "beta_constraint": null, "moving_variance_initializer": {"class_name": "Ones", "config": {}}, "trainable": true, "epsilon": 0.001, "name": "batch_normalization_83", "gamma_regularizer": null, "beta_initializer": {"class_name": "Zeros", "config": {}}, "center": true, "gamma_initializer": {"class_name": "Ones", "config": {}}, "gamma_constraint": null, "moving_mean_initializer": {"class_name": "Zeros", "config": {}}}}, {"name": "batch_normalization_84", "class_name": "BatchNormalization", "inbound_nodes": [[["conv2d_84", 0, 0, {}]]], "config": {"scale": false, "axis": 3, "momentum": 0.99, "beta_regularizer": null, "beta_constraint": null, "moving_variance_initializer": {"class_name": "Ones", "config": {}}, "trainable": true, "epsilon": 0.001, "name": "batch_normalization_84", "gamma_regularizer": null, "beta_initializer": {"class_name": "Zeros", "config": {}}, "center": true, "gamma_initializer": {"class_name": "Ones", "config": {}}, "gamma_constraint": null, "moving_mean_initializer": {"class_name": "Zeros", "config": {}}}}, {"name": "conv2d_85", "class_name": "Conv2D", "inbound_nodes": [[["average_pooling2d_8", 0, 0, {}]]], "config": {"data_format": "channels_last", "kernel_regularizer": null, "filters": 192, "bias_regularizer": null, "kernel_initializer": {"class_name": "VarianceScaling", "config": {"seed": null, "scale": 1.0, "distribution": "uniform", "mode": "fan_avg"}}, "use_bias": false, "bias_initializer": {"class_name": "Zeros", "config": {}}, "dilation_rate": [1, 1], "kernel_constraint": null, "bias_constraint": null, "trainable": true, "name": "conv2d_85", "kernel_size": [1, 1], "strides": [1, 1], "padding": "same", "activity_regularizer": null, "activation": "linear"}}, {"name": "batch_normalization_77", "class_name": "BatchNormalization", "inbound_nodes": [[["conv2d_77", 0, 0, {}]]], "config": {"scale": false, "axis": 3, "momentum": 0.99, "beta_regularizer": null, "beta_constraint": null, "moving_variance_initializer": {"class_name": "Ones", "config": {}}, "trainable": true, "epsilon": 0.001, "name": "batch_normalization_77", "gamma_regularizer": null, "beta_initializer": {"class_name": "Zeros", "config": {}}, "center": true, "gamma_initializer": {"class_name": "Ones", "config": {}}, "gamma_constraint": null, "moving_mean_initializer": {"class_name": "Zeros", "config": {}}}}, {"name": "activation_79", "class_name": "Activation", "inbound_nodes": [[["batch_normalization_79", 0, 0, {}]]], "config": {"trainable": true, "name": "activation_79", "activation": "relu"}}, {"name": "activation_80", "class_name": "Activation", "inbound_nodes": [[["batch_normalization_80", 0, 0, {}]]], "config": {"trainable": true, "name": "activation_80", "activation": "relu"}}, {"name": "activation_83", "class_name": "Activation", "inbound_nodes": [[["batch_normalization_83", 0, 0, {}]]], "config": {"trainable": true, "name": "activation_83", "activation": "relu"}}, {"name": "activation_84", "class_name": "Activation", "inbound_nodes": [[["batch_normalization_84", 0, 0, {}]]], "config": {"trainable": true, "name": "activation_84", "activation": "relu"}}, {"name": "batch_normalization_85", "class_name": "BatchNormalization", "inbound_nodes": [[["conv2d_85", 0, 0, {}]]], "config": {"scale": false, "axis": 3, "momentum": 0.99, "beta_regularizer": null, "beta_constraint": null, "moving_variance_initializer": {"class_name": "Ones", "config": {}}, "trainable": true, "epsilon": 0.001, "name": "batch_normalization_85", "gamma_regularizer": null, "beta_initializer": {"class_name": "Zeros", "config": {}}, "center": true, "gamma_initializer": {"class_name": "Ones", "config": {}}, "gamma_constraint": null, "moving_mean_initializer": {"class_name": "Zeros", "config": {}}}}, {"name": "activation_77", "class_name": "Activation", "inbound_nodes": [[["batch_normalization_77", 0, 0, {}]]], "config": {"trainable": true, "name": "activation_77", "activation": "relu"}}, {"name": "mixed9_0", "class_name": "Concatenate", "inbound_nodes": [[["activation_79", 0, 0, {}], ["activation_80", 0, 0, {}]]], "config": {"trainable": true, "name": "mixed9_0", "axis": 3}}, {"name": "concatenate_1", "class_name": "Concatenate", "inbound_nodes": [[["activation_83", 0, 0, {}], ["activation_84", 0, 0, {}]]], "config": {"trainable": true, "name": "concatenate_1", "axis": 3}}, {"name": "activation_85", "class_name": "Activation", "inbound_nodes": [[["batch_normalization_85", 0, 0, {}]]], "config": {"trainable": true, "name": "activation_85", "activation": "relu"}}, {"name": "mixed9", "class_name": "Concatenate", "inbound_nodes": [[["activation_77", 0, 0, {}], ["mixed9_0", 0, 0, {}], ["concatenate_1", 0, 0, {}], ["activation_85", 0, 0, {}]]], "config": {"trainable": true, "name": "mixed9", "axis": 3}}, {"name": "conv2d_90", "class_name": "Conv2D", "inbound_nodes": [[["mixed9", 0, 0, {}]]], "config": {"data_format": "channels_last", "kernel_regularizer": null, "filters": 448, "bias_regularizer": null, "kernel_initializer": {"class_name": "VarianceScaling", "config": {"seed": null, "scale": 1.0, "distribution": "uniform", "mode": "fan_avg"}}, "use_bias": false, "bias_initializer": {"class_name": "Zeros", "config": {}}, "dilation_rate": [1, 1], "kernel_constraint": null, "bias_constraint": null, "trainable": true, "name": "conv2d_90", "kernel_size": [1, 1], "strides": [1, 1], "padding": "same", "activity_regularizer": null, "activation": "linear"}}, {"name": "batch_normalization_90", "class_name": "BatchNormalization", "inbound_nodes": [[["conv2d_90", 0, 0, {}]]], "config": {"scale": false, "axis": 3, "momentum": 0.99, "beta_regularizer": null, "beta_constraint": null, "moving_variance_initializer": {"class_name": "Ones", "config": {}}, "trainable": true, "epsilon": 0.001, "name": "batch_normalization_90", "gamma_regularizer": null, "beta_initializer": {"class_name": "Zeros", "config": {}}, "center": true, "gamma_initializer": {"class_name": "Ones", "config": {}}, "gamma_constraint": null, "moving_mean_initializer": {"class_name": "Zeros", "config": {}}}}, {"name": "activation_90", "class_name": "Activation", "inbound_nodes": [[["batch_normalization_90", 0, 0, {}]]], "config": {"trainable": true, "name": "activation_90", "activation": "relu"}}, {"name": "conv2d_87", "class_name": "Conv2D", "inbound_nodes": [[["mixed9", 0, 0, {}]]], "config": {"data_format": "channels_last", "kernel_regularizer": null, "filters": 384, "bias_regularizer": null, "kernel_initializer": {"class_name": "VarianceScaling", "config": {"seed": null, "scale": 1.0, "distribution": "uniform", "mode": "fan_avg"}}, "use_bias": false, "bias_initializer": {"class_name": "Zeros", "config": {}}, "dilation_rate": [1, 1], "kernel_constraint": null, "bias_constraint": null, "trainable": true, "name": "conv2d_87", "kernel_size": [1, 1], "strides": [1, 1], "padding": "same", "activity_regularizer": null, "activation": "linear"}}, {"name": "conv2d_91", "class_name": "Conv2D", "inbound_nodes": [[["activation_90", 0, 0, {}]]], "config": {"data_format": "channels_last", "kernel_regularizer": null, "filters": 384, "bias_regularizer": null, "kernel_initializer": {"class_name": "VarianceScaling", "config": {"seed": null, "scale": 1.0, "distribution": "uniform", "mode": "fan_avg"}}, "use_bias": false, "bias_initializer": {"class_name": "Zeros", "config": {}}, "dilation_rate": [1, 1], "kernel_constraint": null, "bias_constraint": null, "trainable": true, "name": "conv2d_91", "kernel_size": [3, 3], "strides": [1, 1], "padding": "same", "activity_regularizer": null, "activation": "linear"}}, {"name": "batch_normalization_87", "class_name": "BatchNormalization", "inbound_nodes": [[["conv2d_87", 0, 0, {}]]], "config": {"scale": false, "axis": 3, "momentum": 0.99, "beta_regularizer": null, "beta_constraint": null, "moving_variance_initializer": {"class_name": "Ones", "config": {}}, "trainable": true, "epsilon": 0.001, "name": "batch_normalization_87", "gamma_regularizer": null, "beta_initializer": {"class_name": "Zeros", "config": {}}, "center": true, "gamma_initializer": {"class_name": "Ones", "config": {}}, "gamma_constraint": null, "moving_mean_initializer": {"class_name": "Zeros", "config": {}}}}, {"name": "batch_normalization_91", "class_name": "BatchNormalization", "inbound_nodes": [[["conv2d_91", 0, 0, {}]]], "config": {"scale": false, "axis": 3, "momentum": 0.99, "beta_regularizer": null, "beta_constraint": null, "moving_variance_initializer": {"class_name": "Ones", "config": {}}, "trainable": true, "epsilon": 0.001, "name": "batch_normalization_91", "gamma_regularizer": null, "beta_initializer": {"class_name": "Zeros", "config": {}}, "center": true, "gamma_initializer": {"class_name": "Ones", "config": {}}, "gamma_constraint": null, "moving_mean_initializer": {"class_name": "Zeros", "config": {}}}}, {"name": "activation_87", "class_name": "Activation", "inbound_nodes": [[["batch_normalization_87", 0, 0, {}]]], "config": {"trainable": true, "name": "activation_87", "activation": "relu"}}, {"name": "activation_91", "class_name": "Activation", "inbound_nodes": [[["batch_normalization_91", 0, 0, {}]]], "config": {"trainable": true, "name": "activation_91", "activation": "relu"}}, {"name": "conv2d_88", "class_name": "Conv2D", "inbound_nodes": [[["activation_87", 0, 0, {}]]], "config": {"data_format": "channels_last", "kernel_regularizer": null, "filters": 384, "bias_regularizer": null, "kernel_initializer": {"class_name": "VarianceScaling", "config": {"seed": null, "scale": 1.0, "distribution": "uniform", "mode": "fan_avg"}}, "use_bias": false, "bias_initializer": {"class_name": "Zeros", "config": {}}, "dilation_rate": [1, 1], "kernel_constraint": null, "bias_constraint": null, "trainable": true, "name": "conv2d_88", "kernel_size": [1, 3], "strides": [1, 1], "padding": "same", "activity_regularizer": null, "activation": "linear"}}, {"name": "conv2d_89", "class_name": "Conv2D", "inbound_nodes": [[["activation_87", 0, 0, {}]]], "config": {"data_format": "channels_last", "kernel_regularizer": null, "filters": 384, "bias_regularizer": null, "kernel_initializer": {"class_name": "VarianceScaling", "config": {"seed": null, "scale": 1.0, "distribution": "uniform", "mode": "fan_avg"}}, "use_bias": false, "bias_initializer": {"class_name": "Zeros", "config": {}}, "dilation_rate": [1, 1], "kernel_constraint": null, "bias_constraint": null, "trainable": true, "name": "conv2d_89", "kernel_size": [3, 1], "strides": [1, 1], "padding": "same", "activity_regularizer": null, "activation": "linear"}}, {"name": "conv2d_92", "class_name": "Conv2D", "inbound_nodes": [[["activation_91", 0, 0, {}]]], "config": {"data_format": "channels_last", "kernel_regularizer": null, "filters": 384, "bias_regularizer": null, "kernel_initializer": {"class_name": "VarianceScaling", "config": {"seed": null, "scale": 1.0, "distribution": "uniform", "mode": "fan_avg"}}, "use_bias": false, "bias_initializer": {"class_name": "Zeros", "config": {}}, "dilation_rate": [1, 1], "kernel_constraint": null, "bias_constraint": null, "trainable": true, "name": "conv2d_92", "kernel_size": [1, 3], "strides": [1, 1], "padding": "same", "activity_regularizer": null, "activation": "linear"}}, {"name": "conv2d_93", "class_name": "Conv2D", "inbound_nodes": [[["activation_91", 0, 0, {}]]], "config": {"data_format": "channels_last", "kernel_regularizer": null, "filters": 384, "bias_regularizer": null, "kernel_initializer": {"class_name": "VarianceScaling", "config": {"seed": null, "scale": 1.0, "distribution": "uniform", "mode": "fan_avg"}}, "use_bias": false, "bias_initializer": {"class_name": "Zeros", "config": {}}, "dilation_rate": [1, 1], "kernel_constraint": null, "bias_constraint": null, "trainable": true, "name": "conv2d_93", "kernel_size": [3, 1], "strides": [1, 1], "padding": "same", "activity_regularizer": null, "activation": "linear"}}, {"name": "average_pooling2d_9", "class_name": "AveragePooling2D", "inbound_nodes": [[["mixed9", 0, 0, {}]]], "config": {"trainable": true, "data_format": "channels_last", "name": "average_pooling2d_9", "strides": [1, 1], "padding": "same", "pool_size": [3, 3]}}, {"name": "conv2d_86", "class_name": "Conv2D", "inbound_nodes": [[["mixed9", 0, 0, {}]]], "config": {"data_format": "channels_last", "kernel_regularizer": null, "filters": 320, "bias_regularizer": null, "kernel_initializer": {"class_name": "VarianceScaling", "config": {"seed": null, "scale": 1.0, "distribution": "uniform", "mode": "fan_avg"}}, "use_bias": false, "bias_initializer": {"class_name": "Zeros", "config": {}}, "dilation_rate": [1, 1], "kernel_constraint": null, "bias_constraint": null, "trainable": true, "name": "conv2d_86", "kernel_size": [1, 1], "strides": [1, 1], "padding": "same", "activity_regularizer": null, "activation": "linear"}}, {"name": "batch_normalization_88", "class_name": "BatchNormalization", "inbound_nodes": [[["conv2d_88", 0, 0, {}]]], "config": {"scale": false, "axis": 3, "momentum": 0.99, "beta_regularizer": null, "beta_constraint": null, "moving_variance_initializer": {"class_name": "Ones", "config": {}}, "trainable": true, "epsilon": 0.001, "name": "batch_normalization_88", "gamma_regularizer": null, "beta_initializer": {"class_name": "Zeros", "config": {}}, "center": true, "gamma_initializer": {"class_name": "Ones", "config": {}}, "gamma_constraint": null, "moving_mean_initializer": {"class_name": "Zeros", "config": {}}}}, {"name": "batch_normalization_89", "class_name": "BatchNormalization", "inbound_nodes": [[["conv2d_89", 0, 0, {}]]], "config": {"scale": false, "axis": 3, "momentum": 0.99, "beta_regularizer": null, "beta_constraint": null, "moving_variance_initializer": {"class_name": "Ones", "config": {}}, "trainable": true, "epsilon": 0.001, "name": "batch_normalization_89", "gamma_regularizer": null, "beta_initializer": {"class_name": "Zeros", "config": {}}, "center": true, "gamma_initializer": {"class_name": "Ones", "config": {}}, "gamma_constraint": null, "moving_mean_initializer": {"class_name": "Zeros", "config": {}}}}, {"name": "batch_normalization_92", "class_name": "BatchNormalization", "inbound_nodes": [[["conv2d_92", 0, 0, {}]]], "config": {"scale": false, "axis": 3, "momentum": 0.99, "beta_regularizer": null, "beta_constraint": null, "moving_variance_initializer": {"class_name": "Ones", "config": {}}, "trainable": true, "epsilon": 0.001, "name": "batch_normalization_92", "gamma_regularizer": null, "beta_initializer": {"class_name": "Zeros", "config": {}}, "center": true, "gamma_initializer": {"class_name": "Ones", "config": {}}, "gamma_constraint": null, "moving_mean_initializer": {"class_name": "Zeros", "config": {}}}}, {"name": "batch_normalization_93", "class_name": "BatchNormalization", "inbound_nodes": [[["conv2d_93", 0, 0, {}]]], "config": {"scale": false, "axis": 3, "momentum": 0.99, "beta_regularizer": null, "beta_constraint": null, "moving_variance_initializer": {"class_name": "Ones", "config": {}}, "trainable": true, "epsilon": 0.001, "name": "batch_normalization_93", "gamma_regularizer": null, "beta_initializer": {"class_name": "Zeros", "config": {}}, "center": true, "gamma_initializer": {"class_name": "Ones", "config": {}}, "gamma_constraint": null, "moving_mean_initializer": {"class_name": "Zeros", "config": {}}}}, {"name": "conv2d_94", "class_name": "Conv2D", "inbound_nodes": [[["average_pooling2d_9", 0, 0, {}]]], "config": {"data_format": "channels_last", "kernel_regularizer": null, "filters": 192, "bias_regularizer": null, "kernel_initializer": {"class_name": "VarianceScaling", "config": {"seed": null, "scale": 1.0, "distribution": "uniform", "mode": "fan_avg"}}, "use_bias": false, "bias_initializer": {"class_name": "Zeros", "config": {}}, "dilation_rate": [1, 1], "kernel_constraint": null, "bias_constraint": null, "trainable": true, "name": "conv2d_94", "kernel_size": [1, 1], "strides": [1, 1], "padding": "same", "activity_regularizer": null, "activation": "linear"}}, {"name": "batch_normalization_86", "class_name": "BatchNormalization", "inbound_nodes": [[["conv2d_86", 0, 0, {}]]], "config": {"scale": false, "axis": 3, "momentum": 0.99, "beta_regularizer": null, "beta_constraint": null, "moving_variance_initializer": {"class_name": "Ones", "config": {}}, "trainable": true, "epsilon": 0.001, "name": "batch_normalization_86", "gamma_regularizer": null, "beta_initializer": {"class_name": "Zeros", "config": {}}, "center": true, "gamma_initializer": {"class_name": "Ones", "config": {}}, "gamma_constraint": null, "moving_mean_initializer": {"class_name": "Zeros", "config": {}}}}, {"name": "activation_88", "class_name": "Activation", "inbound_nodes": [[["batch_normalization_88", 0, 0, {}]]], "config": {"trainable": true, "name": "activation_88", "activation": "relu"}}, {"name": "activation_89", "class_name": "Activation", "inbound_nodes": [[["batch_normalization_89", 0, 0, {}]]], "config": {"trainable": true, "name": "activation_89", "activation": "relu"}}, {"name": "activation_92", "class_name": "Activation", "inbound_nodes": [[["batch_normalization_92", 0, 0, {}]]], "config": {"trainable": true, "name": "activation_92", "activation": "relu"}}, {"name": "activation_93", "class_name": "Activation", "inbound_nodes": [[["batch_normalization_93", 0, 0, {}]]], "config": {"trainable": true, "name": "activation_93", "activation": "relu"}}, {"name": "batch_normalization_94", "class_name": "BatchNormalization", "inbound_nodes": [[["conv2d_94", 0, 0, {}]]], "config": {"scale": false, "axis": 3, "momentum": 0.99, "beta_regularizer": null, "beta_constraint": null, "moving_variance_initializer": {"class_name": "Ones", "config": {}}, "trainable": true, "epsilon": 0.001, "name": "batch_normalization_94", "gamma_regularizer": null, "beta_initializer": {"class_name": "Zeros", "config": {}}, "center": true, "gamma_initializer": {"class_name": "Ones", "config": {}}, "gamma_constraint": null, "moving_mean_initializer": {"class_name": "Zeros", "config": {}}}}, {"name": "activation_86", "class_name": "Activation", "inbound_nodes": [[["batch_normalization_86", 0, 0, {}]]], "config": {"trainable": true, "name": "activation_86", "activation": "relu"}}, {"name": "mixed9_1", "class_name": "Concatenate", "inbound_nodes": [[["activation_88", 0, 0, {}], ["activation_89", 0, 0, {}]]], "config": {"trainable": true, "name": "mixed9_1", "axis": 3}}, {"name": "concatenate_2", "class_name": "Concatenate", "inbound_nodes": [[["activation_92", 0, 0, {}], ["activation_93", 0, 0, {}]]], "config": {"trainable": true, "name": "concatenate_2", "axis": 3}}, {"name": "activation_94", "class_name": "Activation", "inbound_nodes": [[["batch_normalization_94", 0, 0, {}]]], "config": {"trainable": true, "name": "activation_94", "activation": "relu"}}, {"name": "mixed10", "class_name": "Concatenate", "inbound_nodes": [[["activation_86", 0, 0, {}], ["mixed9_1", 0, 0, {}], ["concatenate_2", 0, 0, {}], ["activation_94", 0, 0, {}]]], "config": {"trainable": true, "name": "mixed10", "axis": 3}}, {"name": "global_average_pooling2d_1", "class_name": "GlobalAveragePooling2D", "inbound_nodes": [[["mixed10", 0, 0, {}]]], "config": {"trainable": true, "data_format": "channels_last", "name": "global_average_pooling2d_1"}}, {"name": "dense_1", "class_name": "Dense", "inbound_nodes": [[["global_average_pooling2d_1", 0, 0, {}]]], "config": {"kernel_regularizer": null, "units": 1024, "bias_regularizer": null, "kernel_initializer": {"class_name": "VarianceScaling", "config": {"seed": null, "scale": 1.0, "distribution": "uniform", "mode": "fan_avg"}}, "use_bias": true, "bias_constraint": null, "kernel_constraint": null, "trainable": true, "name": "dense_1", "activation": "relu", "bias_initializer": {"class_name": "Zeros", "config": {}}, "activity_regularizer": null}}, {"name": "dense_2", "class_name": "Dense", "inbound_nodes": [[["dense_1", 0, 0, {}]]], "config": {"kernel_regularizer": null, "units": 512, "bias_regularizer": null, "kernel_initializer": {"class_name": "VarianceScaling", "config": {"seed": null, "scale": 1.0, "distribution": "uniform", "mode": "fan_avg"}}, "use_bias": true, "bias_constraint": null, "kernel_constraint": null, "trainable": true, "name": "dense_2", "activation": "relu", "bias_initializer": {"class_name": "Zeros", "config": {}}, "activity_regularizer": null}}, {"name": "dense_3", "class_name": "Dense", "inbound_nodes": [[["dense_2", 0, 0, {}]]], "config": {"kernel_regularizer": null, "units": 2, "bias_regularizer": null, "kernel_initializer": {"class_name": "VarianceScaling", "config": {"seed": null, "scale": 1.0, "distribution": "uniform", "mode": "fan_avg"}}, "use_bias": true, "bias_constraint": null, "kernel_constraint": null, "trainable": true, "name": "dense_3", "activation": "softmax", "bias_initializer": {"class_name": "Zeros", "config": {}}, "activity_regularizer": null}}], "name": "model_1", "output_layers": [["dense_3", 0, 0]], "input_layers": [["input_1", 0, 0]]}}